STEdgeAI Core v9.0.0-19802
Created date          : 2024-09-02 22:39:43
Parameters            : generate --target stm32h7 --name network -m D:/H743/Alpha-GoLite/Alpha-GoLite/Alpha-GoLite/best_policy_value_net_simplify.onnx --compression none --verbosity 1 --allocate-inputs -O ram --allocate-outputs --workspace C:/Users/hp/AppData/Local/Temp/mxAI_workspace506197675284003464844519109444286 --output C:/Users/hp/.stm32cubemx/network_output

Exec/report summary (generate)
------------------------------------------------------------------------------------------------------------
model file         :   D:\H743\Alpha-GoLite\Alpha-GoLite\Alpha-GoLite\best_policy_value_net_simplify.onnx   
type               :   onnx                                                                                 
c_name             :   network                                                                              
compression        :   none                                                                                 
options            :   allocate-inputs, allocate-outputs                                                    
optimization       :   ram                                                                                  
target/series      :   stm32h7                                                                              
workspace dir      :   C:\Users\hp\AppData\Local\Temp\mxAI_workspace506197675284003464844519109444286       
output dir         :   C:\Users\hp\.stm32cubemx\network_output                                              
model_fmt          :   float                                                                                
model_name         :   best_policy_value_net_simplify                                                       
model_hash         :   0xe19dc6feddc9e2cdbc4a64ef78f776c9                                                   
params #           :   316,416 items (1.21 MiB)                                                             
------------------------------------------------------------------------------------------------------------
input 1/1          :   'input', f32(1x6x9x9), 1.90 KBytes, activations                                      
output 1/2         :   'output', f32(1x81), 324 Bytes, activations                                          
output 2/2         :   'node_384', f32(1x1), 4 Bytes, activations                                           
outputs (total)    :   0 Bytes                                                                              
macc               :   19,260,049                                                                           
weights (ro)       :   1,268,472 B (1.21 MiB) (1 segment) / +2,808(+0.2%) vs float model                    
activations (rw)   :   57,408 B (56.06 KiB) (1 segment) *                                                   
ram (total)        :   57,408 B (56.06 KiB) = 57,408 + 0 + 0                                                
------------------------------------------------------------------------------------------------------------
(*) 'input'/'output' buffers can be used from the activations buffer

Model name - best_policy_value_net_simplify
------ -------------------------------------------------------------------------- --------------------- ---------------- ----------- ------------------------------------------ --- -------------------- ------------------- ------------------------------------ 
m_id   layer (type,original)                                                      oshape                param/size              macc                               connected to   | c_size               c_macc              c_type                               
------ -------------------------------------------------------------------------- --------------------- ---------------- ----------- ------------------------------------------ --- -------------------- ------------------- ------------------------------------ 
32     _ULite_e1_act_Constant_output_0 (Placeholder, Div)                         []                    1/4                                                                       | -4(-100.0%)          +2,560(+100.0%)     Eltwise/div_[31]                     
------ -------------------------------------------------------------------------- --------------------- ---------------- ----------- ------------------------------------------ --- -------------------- ------------------- ------------------------------------ 
34     _ULite_e1_act_Constant_1_output_0 (Placeholder, Add)                       []                    1/4                                                                       | +252(+6300.0%)       +1,024(+100.0%)     ScaleBias_[33]                       
------ -------------------------------------------------------------------------- --------------------- ---------------- ----------- ------------------------------------------ --- -------------------- ------------------- ------------------------------------ 
1      _ULite_e1_act_Constant_2_output_0 (Placeholder, Mul)                       []                    1/4                                                                       | +9,236(+230900.0%)   +183,750(+100.0%)   Conv2D_[1]                           
------ -------------------------------------------------------------------------- --------------------- ---------------- ----------- ------------------------------------------ --- -------------------- ------------------- ------------------------------------ 
129    policy_head_fc_weight (Placeholder, Gemm)                                  [h:162,c:81]          13,122/52,488                                                             | +324(+0.6%)          +13,203(+100.0%)    Dense_[132]                          
       policy_head_fc_bias (Placeholder, Gemm)                                    [c:81]                81/324                                                                    | -324(-100.0%)                            
------ -------------------------------------------------------------------------- --------------------- ---------------- ----------- ------------------------------------------ --- -------------------- ------------------- ------------------------------------ 
134    value_head_fc_0_weight (Placeholder, Gemm)                                 [h:81,c:128]          10,368/41,472                                                             | +512(+1.2%)          +10,496(+100.0%)    Dense_[125]                          
       value_head_fc_0_bias (Placeholder, Gemm)                                   [c:128]               128/512                                                                   | -512(-100.0%)                            
------ -------------------------------------------------------------------------- --------------------- ---------------- ----------- ------------------------------------------ --- -------------------- ------------------- ------------------------------------ 
136    value_head_fc_2_weight (Placeholder, Gemm)                                 [b:1,c:128]           128/512                                                                   | +4(+0.8%)            +129(+100.0%)       Dense_[127]                          
       value_head_fc_2_bias (Placeholder, Gemm)                                   [c:1]                 1/4                                                                       | -4(-100.0%)                              
------ -------------------------------------------------------------------------- --------------------- ---------------- ----------- ------------------------------------------ --- -------------------- ------------------- ------------------------------------ 
0      input (Input, )                                                            [b:1,h:9,w:9,c:6]                                                                               |                                          
------ -------------------------------------------------------------------------- --------------------- ---------------- ----------- ------------------------------------------ --- -------------------- ------------------- ------------------------------------ 
1      _conv1_conv_Conv_output_0 (Conv2D, Conv)                                   [b:1,h:9,w:9,c:42]    2,310/9,240          183,750                                      input   | -9,240(-100.0%)      -183,750(-100.0%)   
------ -------------------------------------------------------------------------- --------------------- ---------------- ----------- ------------------------------------------ --- -------------------- ------------------- ------------------------------------ 
2      _conv1_Relu_output_0 (Nonlinearity, Relu)                                  [b:1,h:9,w:9,c:42]                           3,402                  _conv1_conv_Conv_output_0   |                      +243(+7.1%)         Transpose_/Nonlinearity_[0, 2]       
------ -------------------------------------------------------------------------- --------------------- ---------------- ----------- ------------------------------------------ --- -------------------- ------------------- ------------------------------------ 
3      _conv2_conv_Conv_output_0 (Conv2D, Conv)                                   [b:1,h:8,w:8,c:16]    10,768/43,072        688,144                       _conv1_Relu_output_0   |                                          Conv2D_[23]                          
------ -------------------------------------------------------------------------- --------------------- ---------------- ----------- ------------------------------------------ --- -------------------- ------------------- ------------------------------------ 
4      _conv2_Relu_output_0 (Nonlinearity, Relu)                                  [b:1,h:8,w:8,c:16]                           1,024                  _conv2_conv_Conv_output_0   |                                          Nonlinearity_[24]                    
------ -------------------------------------------------------------------------- --------------------- ---------------- ----------- ------------------------------------------ --- -------------------- ------------------- ------------------------------------ 
5      _residues_residues_0_conv1_Conv_output_0 (Conv2D, Conv)                    [b:1,h:9,w:9,c:42]    15,918/63,672      1,285,998                       _conv1_Relu_output_0   |                                          Conv2D_[3]                           
------ -------------------------------------------------------------------------- --------------------- ---------------- ----------- ------------------------------------------ --- -------------------- ------------------- ------------------------------------ 
6      _residues_residues_0_Relu_output_0 (Nonlinearity, Relu)                    [b:1,h:9,w:9,c:42]                           3,402   _residues_residues_0_conv1_Conv_output_0   |                                          Nonlinearity_[4]                     
------ -------------------------------------------------------------------------- --------------------- ---------------- ----------- ------------------------------------------ --- -------------------- ------------------- ------------------------------------ 
7      _residues_residues_0_conv2_Conv_output_0 (Conv2D, Conv)                    [b:1,h:9,w:9,c:42]    15,918/63,672      1,285,998         _residues_residues_0_Relu_output_0   |                                          Conv2D_[5]                           
------ -------------------------------------------------------------------------- --------------------- ---------------- ----------- ------------------------------------------ --- -------------------- ------------------- ------------------------------------ 
8      _residues_residues_0_Add_output_0 (Eltwise, Add)                           [b:1,h:9,w:9,c:42]                           3,402   _residues_residues_0_conv2_Conv_output_0   |                                          Eltwise/add_[6]                      
                                                                                                                                                           _conv1_Relu_output_0   | 
------ -------------------------------------------------------------------------- --------------------- ---------------- ----------- ------------------------------------------ --- -------------------- ------------------- ------------------------------------ 
9      _residues_residues_0_Relu_1_output_0 (Nonlinearity, Relu)                  [b:1,h:9,w:9,c:42]                           3,402          _residues_residues_0_Add_output_0   |                                          Nonlinearity_[7]                     
------ -------------------------------------------------------------------------- --------------------- ---------------- ----------- ------------------------------------------ --- -------------------- ------------------- ------------------------------------ 
10     _residues_residues_1_conv1_Conv_output_0 (Conv2D, Conv)                    [b:1,h:9,w:9,c:42]    15,918/63,672      1,285,998       _residues_residues_0_Relu_1_output_0   |                                          Conv2D_[8]                           
------ -------------------------------------------------------------------------- --------------------- ---------------- ----------- ------------------------------------------ --- -------------------- ------------------- ------------------------------------ 
11     _residues_residues_1_Relu_output_0 (Nonlinearity, Relu)                    [b:1,h:9,w:9,c:42]                           3,402   _residues_residues_1_conv1_Conv_output_0   |                                          Nonlinearity_[9]                     
------ -------------------------------------------------------------------------- --------------------- ---------------- ----------- ------------------------------------------ --- -------------------- ------------------- ------------------------------------ 
12     _residues_residues_1_conv2_Conv_output_0 (Conv2D, Conv)                    [b:1,h:9,w:9,c:42]    15,918/63,672      1,285,998         _residues_residues_1_Relu_output_0   |                                          Conv2D_[10]                          
------ -------------------------------------------------------------------------- --------------------- ---------------- ----------- ------------------------------------------ --- -------------------- ------------------- ------------------------------------ 
13     _residues_residues_1_Add_output_0 (Eltwise, Add)                           [b:1,h:9,w:9,c:42]                           3,402   _residues_residues_1_conv2_Conv_output_0   |                                          Eltwise/add_[11]                     
                                                                                                                                           _residues_residues_0_Relu_1_output_0   | 
------ -------------------------------------------------------------------------- --------------------- ---------------- ----------- ------------------------------------------ --- -------------------- ------------------- ------------------------------------ 
14     _residues_residues_1_Relu_1_output_0 (Nonlinearity, Relu)                  [b:1,h:9,w:9,c:42]                           3,402          _residues_residues_1_Add_output_0   |                                          Nonlinearity_[12]                    
------ -------------------------------------------------------------------------- --------------------- ---------------- ----------- ------------------------------------------ --- -------------------- ------------------- ------------------------------------ 
15     _residues_residues_2_conv1_Conv_output_0 (Conv2D, Conv)                    [b:1,h:9,w:9,c:42]    15,918/63,672      1,285,998       _residues_residues_1_Relu_1_output_0   |                                          Conv2D_[13]                          
------ -------------------------------------------------------------------------- --------------------- ---------------- ----------- ------------------------------------------ --- -------------------- ------------------- ------------------------------------ 
16     _residues_residues_2_Relu_output_0 (Nonlinearity, Relu)                    [b:1,h:9,w:9,c:42]                           3,402   _residues_residues_2_conv1_Conv_output_0   |                                          Nonlinearity_[14]                    
------ -------------------------------------------------------------------------- --------------------- ---------------- ----------- ------------------------------------------ --- -------------------- ------------------- ------------------------------------ 
17     _residues_residues_2_conv2_Conv_output_0 (Conv2D, Conv)                    [b:1,h:9,w:9,c:42]    15,918/63,672      1,285,998         _residues_residues_2_Relu_output_0   |                                          Conv2D_[15]                          
------ -------------------------------------------------------------------------- --------------------- ---------------- ----------- ------------------------------------------ --- -------------------- ------------------- ------------------------------------ 
18     _residues_residues_2_Add_output_0 (Eltwise, Add)                           [b:1,h:9,w:9,c:42]                           3,402   _residues_residues_2_conv2_Conv_output_0   |                                          Eltwise/add_[16]                     
                                                                                                                                           _residues_residues_1_Relu_1_output_0   | 
------ -------------------------------------------------------------------------- --------------------- ---------------- ----------- ------------------------------------------ --- -------------------- ------------------- ------------------------------------ 
19     _residues_residues_2_Relu_1_output_0 (Nonlinearity, Relu)                  [b:1,h:9,w:9,c:42]                           3,402          _residues_residues_2_Add_output_0   |                                          Nonlinearity_[17]                    
------ -------------------------------------------------------------------------- --------------------- ---------------- ----------- ------------------------------------------ --- -------------------- ------------------- ------------------------------------ 
20     _residues_residues_3_conv1_Conv_output_0 (Conv2D, Conv)                    [b:1,h:9,w:9,c:42]    15,918/63,672      1,285,998       _residues_residues_2_Relu_1_output_0   |                                          Conv2D_[18]                          
------ -------------------------------------------------------------------------- --------------------- ---------------- ----------- ------------------------------------------ --- -------------------- ------------------- ------------------------------------ 
21     _residues_residues_3_Relu_output_0 (Nonlinearity, Relu)                    [b:1,h:9,w:9,c:42]                           3,402   _residues_residues_3_conv1_Conv_output_0   |                                          Nonlinearity_[19]                    
------ -------------------------------------------------------------------------- --------------------- ---------------- ----------- ------------------------------------------ --- -------------------- ------------------- ------------------------------------ 
22     _residues_residues_3_conv2_Conv_output_0 (Conv2D, Conv)                    [b:1,h:9,w:9,c:42]    15,918/63,672      1,285,998         _residues_residues_3_Relu_output_0   |                                          Conv2D_[20]                          
------ -------------------------------------------------------------------------- --------------------- ---------------- ----------- ------------------------------------------ --- -------------------- ------------------- ------------------------------------ 
23     _residues_residues_3_Add_output_0 (Eltwise, Add)                           [b:1,h:9,w:9,c:42]                           3,402   _residues_residues_3_conv2_Conv_output_0   |                                          Eltwise/add_[21]                     
                                                                                                                                           _residues_residues_2_Relu_1_output_0   | 
------ -------------------------------------------------------------------------- --------------------- ---------------- ----------- ------------------------------------------ --- -------------------- ------------------- ------------------------------------ 
24     _residues_residues_3_Relu_1_output_0 (Nonlinearity, Relu)                  [b:1,h:9,w:9,c:42]                           3,402          _residues_residues_3_Add_output_0   |                                          Nonlinearity_[22]                    
------ -------------------------------------------------------------------------- --------------------- ---------------- ----------- ------------------------------------------ --- -------------------- ------------------- ------------------------------------ 
25     _ULite_e1_dw_dw_h_Conv_output_0 (Conv2D, Conv)                             [b:1,h:8,w:8,c:16]    128/512                7,184                       _conv2_Relu_output_0   |                                          Conv2D_[26]                          
------ -------------------------------------------------------------------------- --------------------- ---------------- ----------- ------------------------------------------ --- -------------------- ------------------- ------------------------------------ 
26     _ULite_e1_dw_Add_output_0 (Eltwise, Add)                                   [b:1,h:8,w:8,c:16]                           1,024                       _conv2_Relu_output_0   |                                          Eltwise/add_[27]                     
                                                                                                                                                _ULite_e1_dw_dw_h_Conv_output_0   | 
------ -------------------------------------------------------------------------- --------------------- ---------------- ----------- ------------------------------------------ --- -------------------- ------------------- ------------------------------------ 
27     _ULite_e1_dw_dw_w_Conv_output_0 (Conv2D, Conv)                             [b:1,h:8,w:8,c:16]    128/512                7,184                       _conv2_Relu_output_0   |                                          Conv2D_[25]                          
------ -------------------------------------------------------------------------- --------------------- ---------------- ----------- ------------------------------------------ --- -------------------- ------------------- ------------------------------------ 
28     _ULite_e1_dw_Add_1_output_0 (Eltwise, Add)                                 [b:1,h:8,w:8,c:16]                           1,024                  _ULite_e1_dw_Add_output_0   |                                          Eltwise/add_[28]                     
                                                                                                                                                _ULite_e1_dw_dw_w_Conv_output_0   | 
------ -------------------------------------------------------------------------- --------------------- ---------------- ----------- ------------------------------------------ --- -------------------- ------------------- ------------------------------------ 
29     _ULite_e1_bn_BatchNormalization_output_0 (ScaleBias, BatchNormalization)   [b:1,h:8,w:8,c:16]    32/128                 2,048                _ULite_e1_dw_Add_1_output_0   |                                          ScaleBias_[29]                       
------ -------------------------------------------------------------------------- --------------------- ---------------- ----------- ------------------------------------------ --- -------------------- ------------------- ------------------------------------ 
30     _ULite_e1_pw_Conv_output_0 (Conv2D, Conv)                                  [b:1,h:8,w:8,c:32]    544/2,176             32,800   _ULite_e1_bn_BatchNormalization_output_0   | -2,176(-100.0%)      -32,800(-100.0%)    
------ -------------------------------------------------------------------------- --------------------- ---------------- ----------- ------------------------------------------ --- -------------------- ------------------- ------------------------------------ 
31     _ULite_e1_down_MaxPool_output_0 (Pool, MaxPool)                            [b:1,h:4,w:4,c:32]                           2,048                 _ULite_e1_pw_Conv_output_0   | +2,176(+100.0%)      +32,800(+1601.6%)   Conv2D_[30]                          
------ -------------------------------------------------------------------------- --------------------- ---------------- ----------- ------------------------------------------ --- -------------------- ------------------- ------------------------------------ 
32     _ULite_e1_act_Div_output_0 (Eltwise, Div)                                  [b:1,h:4,w:4,c:32]                           2,560            _ULite_e1_down_MaxPool_output_0   |                      -2,560(-100.0%)     
                                                                                                                                                _ULite_e1_act_Constant_output_0   | 
------ -------------------------------------------------------------------------- --------------------- ---------------- ----------- ------------------------------------------ --- -------------------- ------------------- ------------------------------------ 
33     _ULite_e1_act_Erf_output_0 (Nonlinearity, Erf)                             [b:1,h:4,w:4,c:32]                           1,024                 _ULite_e1_act_Div_output_0   |                                          Nonlinearity_[32]                    
------ -------------------------------------------------------------------------- --------------------- ---------------- ----------- ------------------------------------------ --- -------------------- ------------------- ------------------------------------ 
34     _ULite_e1_act_Add_output_0 (Eltwise, Add)                                  [b:1,h:4,w:4,c:32]                             512                 _ULite_e1_act_Erf_output_0   |                      -512(-100.0%)       
                                                                                                                                              _ULite_e1_act_Constant_1_output_0   | 
------ -------------------------------------------------------------------------- --------------------- ---------------- ----------- ------------------------------------------ --- -------------------- ------------------- ------------------------------------ 
35     _ULite_e1_act_Mul_output_0 (Eltwise, Mul)                                  [b:1,h:4,w:4,c:32]                             512            _ULite_e1_down_MaxPool_output_0   |                                          Eltwise/mul_[34]                     
                                                                                                                                                     _ULite_e1_act_Add_output_0   | 
------ -------------------------------------------------------------------------- --------------------- ---------------- ----------- ------------------------------------------ --- -------------------- ------------------- ------------------------------------ 
36     _ULite_e1_act_Mul_1_output_0 (Eltwise, Mul)                                [b:1,h:4,w:4,c:32]                             512                 _ULite_e1_act_Mul_output_0   | +256(+100.0%)        +512(+100.0%)       ScaleBias_[35]                       
                                                                                                                                              _ULite_e1_act_Constant_2_output_0   | 
------ -------------------------------------------------------------------------- --------------------- ---------------- ----------- ------------------------------------------ --- -------------------- ------------------- ------------------------------------ 
37     _ULite_e2_dw_dw_h_Conv_output_0 (Conv2D, Conv)                             [b:1,h:4,w:4,c:32]    256/1,024              3,616               _ULite_e1_act_Mul_1_output_0   |                                          Conv2D_[37]                          
------ -------------------------------------------------------------------------- --------------------- ---------------- ----------- ------------------------------------------ --- -------------------- ------------------- ------------------------------------ 
38     _ULite_e2_dw_Add_output_0 (Eltwise, Add)                                   [b:1,h:4,w:4,c:32]                             512               _ULite_e1_act_Mul_1_output_0   |                                          Eltwise/add_[38]                     
                                                                                                                                                _ULite_e2_dw_dw_h_Conv_output_0   | 
------ -------------------------------------------------------------------------- --------------------- ---------------- ----------- ------------------------------------------ --- -------------------- ------------------- ------------------------------------ 
39     _ULite_e2_dw_dw_w_Conv_output_0 (Conv2D, Conv)                             [b:1,h:4,w:4,c:32]    256/1,024              3,616               _ULite_e1_act_Mul_1_output_0   |                                          Conv2D_[36]                          
------ -------------------------------------------------------------------------- --------------------- ---------------- ----------- ------------------------------------------ --- -------------------- ------------------- ------------------------------------ 
40     _ULite_e2_dw_Add_1_output_0 (Eltwise, Add)                                 [b:1,h:4,w:4,c:32]                             512                  _ULite_e2_dw_Add_output_0   |                                          Eltwise/add_[39]                     
                                                                                                                                                _ULite_e2_dw_dw_w_Conv_output_0   | 
------ -------------------------------------------------------------------------- --------------------- ---------------- ----------- ------------------------------------------ --- -------------------- ------------------- ------------------------------------ 
41     _ULite_e2_bn_BatchNormalization_output_0 (ScaleBias, BatchNormalization)   [b:1,h:4,w:4,c:32]    64/256                 1,024                _ULite_e2_dw_Add_1_output_0   |                                          ScaleBias_[40]                       
------ -------------------------------------------------------------------------- --------------------- ---------------- ----------- ------------------------------------------ --- -------------------- ------------------- ------------------------------------ 
42     _ULite_e2_pw_Conv_output_0 (Conv2D, Conv)                                  [b:1,h:4,w:4,c:64]    2,112/8,448           32,832   _ULite_e2_bn_BatchNormalization_output_0   | -8,448(-100.0%)      -32,832(-100.0%)    
------ -------------------------------------------------------------------------- --------------------- ---------------- ----------- ------------------------------------------ --- -------------------- ------------------- ------------------------------------ 
43     _ULite_e2_down_MaxPool_output_0 (Pool, MaxPool)                            [b:1,h:2,w:2,c:64]                           1,024                 _ULite_e2_pw_Conv_output_0   | +8,448(+100.0%)      +32,832(+3206.2%)   Conv2D_[41]                          
------ -------------------------------------------------------------------------- --------------------- ---------------- ----------- ------------------------------------------ --- -------------------- ------------------- ------------------------------------ 
44     _ULite_e2_act_Div_output_0 (Eltwise, Div)                                  [b:1,h:2,w:2,c:64]                           1,280            _ULite_e2_down_MaxPool_output_0   |                                          Eltwise/div_[42]                     
                                                                                                                                                _ULite_e1_act_Constant_output_0   | 
------ -------------------------------------------------------------------------- --------------------- ---------------- ----------- ------------------------------------------ --- -------------------- ------------------- ------------------------------------ 
45     _ULite_e2_act_Erf_output_0 (Nonlinearity, Erf)                             [b:1,h:2,w:2,c:64]                             512                 _ULite_e2_act_Div_output_0   |                                          Nonlinearity_[43]                    
------ -------------------------------------------------------------------------- --------------------- ---------------- ----------- ------------------------------------------ --- -------------------- ------------------- ------------------------------------ 
46     _ULite_e2_act_Add_output_0 (Eltwise, Add)                                  [b:1,h:2,w:2,c:64]                             256                 _ULite_e2_act_Erf_output_0   | +512(+100.0%)        +256(+100.0%)       ScaleBias_[44]                       
                                                                                                                                              _ULite_e1_act_Constant_1_output_0   | 
------ -------------------------------------------------------------------------- --------------------- ---------------- ----------- ------------------------------------------ --- -------------------- ------------------- ------------------------------------ 
47     _ULite_e2_act_Mul_output_0 (Eltwise, Mul)                                  [b:1,h:2,w:2,c:64]                             256            _ULite_e2_down_MaxPool_output_0   |                                          Eltwise/mul_[45]                     
                                                                                                                                                     _ULite_e2_act_Add_output_0   | 
------ -------------------------------------------------------------------------- --------------------- ---------------- ----------- ------------------------------------------ --- -------------------- ------------------- ------------------------------------ 
48     _ULite_e2_act_Mul_1_output_0 (Eltwise, Mul)                                [b:1,h:2,w:2,c:64]                             256                 _ULite_e2_act_Mul_output_0   | +512(+100.0%)        +256(+100.0%)       ScaleBias_[46]                       
                                                                                                                                              _ULite_e1_act_Constant_2_output_0   | 
------ -------------------------------------------------------------------------- --------------------- ---------------- ----------- ------------------------------------------ --- -------------------- ------------------- ------------------------------------ 
49     _ULite_e3_dw_dw_h_Conv_output_0 (Conv2D, Conv)                             [b:1,h:2,w:2,c:64]    512/2,048              1,856               _ULite_e2_act_Mul_1_output_0   |                                          Conv2D_[48]                          
------ -------------------------------------------------------------------------- --------------------- ---------------- ----------- ------------------------------------------ --- -------------------- ------------------- ------------------------------------ 
50     _ULite_e3_dw_Add_output_0 (Eltwise, Add)                                   [b:1,h:2,w:2,c:64]                             256               _ULite_e2_act_Mul_1_output_0   |                                          Eltwise/add_[49]                     
                                                                                                                                                _ULite_e3_dw_dw_h_Conv_output_0   | 
------ -------------------------------------------------------------------------- --------------------- ---------------- ----------- ------------------------------------------ --- -------------------- ------------------- ------------------------------------ 
51     _ULite_e3_dw_dw_w_Conv_output_0 (Conv2D, Conv)                             [b:1,h:2,w:2,c:64]    512/2,048              1,856               _ULite_e2_act_Mul_1_output_0   |                                          Conv2D_[47]                          
------ -------------------------------------------------------------------------- --------------------- ---------------- ----------- ------------------------------------------ --- -------------------- ------------------- ------------------------------------ 
52     _ULite_e3_dw_Add_1_output_0 (Eltwise, Add)                                 [b:1,h:2,w:2,c:64]                             256                  _ULite_e3_dw_Add_output_0   |                                          Eltwise/add_[50]                     
                                                                                                                                                _ULite_e3_dw_dw_w_Conv_output_0   | 
------ -------------------------------------------------------------------------- --------------------- ---------------- ----------- ------------------------------------------ --- -------------------- ------------------- ------------------------------------ 
53     _ULite_e3_bn_BatchNormalization_output_0 (ScaleBias, BatchNormalization)   [b:1,h:2,w:2,c:64]    128/512                  512                _ULite_e3_dw_Add_1_output_0   |                                          ScaleBias_[51]                       
------ -------------------------------------------------------------------------- --------------------- ---------------- ----------- ------------------------------------------ --- -------------------- ------------------- ------------------------------------ 
54     _ULite_e3_pw_Conv_output_0 (Conv2D, Conv)                                  [b:1,h:2,w:2,c:128]   8,320/33,280          32,896   _ULite_e3_bn_BatchNormalization_output_0   |                                          Conv2D_[52]                          
------ -------------------------------------------------------------------------- --------------------- ---------------- ----------- ------------------------------------------ --- -------------------- ------------------- ------------------------------------ 
55     _ULite_e3_down_MaxPool_output_0 (Pool, MaxPool)                            [b:1,h:1,w:1,c:128]                            512                 _ULite_e3_pw_Conv_output_0   |                                          Pool_[53]                            
------ -------------------------------------------------------------------------- --------------------- ---------------- ----------- ------------------------------------------ --- -------------------- ------------------- ------------------------------------ 
56     _ULite_e3_act_Div_output_0 (Eltwise, Div)                                  [b:1,h:1,w:1,c:128]                            640            _ULite_e3_down_MaxPool_output_0   |                                          Eltwise/div_[54]                     
                                                                                                                                                _ULite_e1_act_Constant_output_0   | 
------ -------------------------------------------------------------------------- --------------------- ---------------- ----------- ------------------------------------------ --- -------------------- ------------------- ------------------------------------ 
57     _ULite_e3_act_Erf_output_0 (Nonlinearity, Erf)                             [b:1,h:1,w:1,c:128]                            256                 _ULite_e3_act_Div_output_0   |                                          Nonlinearity_[55]                    
------ -------------------------------------------------------------------------- --------------------- ---------------- ----------- ------------------------------------------ --- -------------------- ------------------- ------------------------------------ 
58     _ULite_e3_act_Add_output_0 (Eltwise, Add)                                  [b:1,h:1,w:1,c:128]                            128                 _ULite_e3_act_Erf_output_0   | +1,024(+100.0%)      +128(+100.0%)       ScaleBias_[56]                       
                                                                                                                                              _ULite_e1_act_Constant_1_output_0   | 
------ -------------------------------------------------------------------------- --------------------- ---------------- ----------- ------------------------------------------ --- -------------------- ------------------- ------------------------------------ 
59     _ULite_e3_act_Mul_output_0 (Eltwise, Mul)                                  [b:1,h:1,w:1,c:128]                            128            _ULite_e3_down_MaxPool_output_0   |                                          Eltwise/mul_[57]                     
                                                                                                                                                     _ULite_e3_act_Add_output_0   | 
------ -------------------------------------------------------------------------- --------------------- ---------------- ----------- ------------------------------------------ --- -------------------- ------------------- ------------------------------------ 
60     _ULite_e3_act_Mul_1_output_0 (Eltwise, Mul)                                [b:1,h:1,w:1,c:128]                            128                 _ULite_e3_act_Mul_output_0   |                      -128(-100.0%)       
                                                                                                                                              _ULite_e1_act_Constant_2_output_0   | 
------ -------------------------------------------------------------------------- --------------------- ---------------- ----------- ------------------------------------------ --- -------------------- ------------------- ------------------------------------ 
61     _ULite_b5_pw1_Conv_output_0 (Conv2D, Conv)                                 [b:1,h:1,w:1,c:32]    4,128/16,512           4,128               _ULite_e3_act_Mul_1_output_0   |                                          Conv2D_[58]                          
------ -------------------------------------------------------------------------- --------------------- ---------------- ----------- ------------------------------------------ --- -------------------- ------------------- ------------------------------------ 
62     _ULite_b5_dw1_dw_h_Conv_output_0 (Conv2D, Conv)                            [b:1,h:1,w:1,c:32]    128/512                  128                _ULite_b5_pw1_Conv_output_0   |                                          Conv2D_[68]                          
------ -------------------------------------------------------------------------- --------------------- ---------------- ----------- ------------------------------------------ --- -------------------- ------------------- ------------------------------------ 
63     _ULite_b5_dw1_Add_output_0 (Eltwise, Add)                                  [b:1,h:1,w:1,c:32]                              32                _ULite_b5_pw1_Conv_output_0   |                                          Eltwise/add_[69]                     
                                                                                                                                               _ULite_b5_dw1_dw_h_Conv_output_0   | 
------ -------------------------------------------------------------------------- --------------------- ---------------- ----------- ------------------------------------------ --- -------------------- ------------------- ------------------------------------ 
64     _ULite_b5_dw1_dw_w_Conv_output_0 (Conv2D, Conv)                            [b:1,h:1,w:1,c:32]    128/512                  128                _ULite_b5_pw1_Conv_output_0   |                                          Conv2D_[67]                          
------ -------------------------------------------------------------------------- --------------------- ---------------- ----------- ------------------------------------------ --- -------------------- ------------------- ------------------------------------ 
65     _ULite_b5_dw1_Add_1_output_0 (Eltwise, Add)                                [b:1,h:1,w:1,c:32]                              32                 _ULite_b5_dw1_Add_output_0   |                                          Eltwise/add_[70]                     
                                                                                                                                               _ULite_b5_dw1_dw_w_Conv_output_0   | 
------ -------------------------------------------------------------------------- --------------------- ---------------- ----------- ------------------------------------------ --- -------------------- ------------------- ------------------------------------ 
66     _ULite_b5_dw2_dw_h_Conv_output_0 (Conv2D, Conv)                            [b:1,h:1,w:1,c:32]    128/512                  128                _ULite_b5_pw1_Conv_output_0   |                                          Conv2D_[64]                          
------ -------------------------------------------------------------------------- --------------------- ---------------- ----------- ------------------------------------------ --- -------------------- ------------------- ------------------------------------ 
67     _ULite_b5_dw2_Add_output_0 (Eltwise, Add)                                  [b:1,h:1,w:1,c:32]                              32                _ULite_b5_pw1_Conv_output_0   |                                          Eltwise/add_[65]                     
                                                                                                                                               _ULite_b5_dw2_dw_h_Conv_output_0   | 
------ -------------------------------------------------------------------------- --------------------- ---------------- ----------- ------------------------------------------ --- -------------------- ------------------- ------------------------------------ 
68     _ULite_b5_dw2_dw_w_Conv_output_0 (Conv2D, Conv)                            [b:1,h:1,w:1,c:32]    128/512                  128                _ULite_b5_pw1_Conv_output_0   |                                          Conv2D_[63]                          
------ -------------------------------------------------------------------------- --------------------- ---------------- ----------- ------------------------------------------ --- -------------------- ------------------- ------------------------------------ 
69     _ULite_b5_dw2_Add_1_output_0 (Eltwise, Add)                                [b:1,h:1,w:1,c:32]                              32                 _ULite_b5_dw2_Add_output_0   |                                          Eltwise/add_[66]                     
                                                                                                                                               _ULite_b5_dw2_dw_w_Conv_output_0   | 
------ -------------------------------------------------------------------------- --------------------- ---------------- ----------- ------------------------------------------ --- -------------------- ------------------- ------------------------------------ 
70     _ULite_b5_dw3_dw_h_Conv_output_0 (Conv2D, Conv)                            [b:1,h:1,w:1,c:32]    128/512                  128                _ULite_b5_pw1_Conv_output_0   |                                          Conv2D_[60]                          
------ -------------------------------------------------------------------------- --------------------- ---------------- ----------- ------------------------------------------ --- -------------------- ------------------- ------------------------------------ 
71     _ULite_b5_dw3_Add_output_0 (Eltwise, Add)                                  [b:1,h:1,w:1,c:32]                              32                _ULite_b5_pw1_Conv_output_0   |                                          Eltwise/add_[61]                     
                                                                                                                                               _ULite_b5_dw3_dw_h_Conv_output_0   | 
------ -------------------------------------------------------------------------- --------------------- ---------------- ----------- ------------------------------------------ --- -------------------- ------------------- ------------------------------------ 
72     _ULite_b5_dw3_dw_w_Conv_output_0 (Conv2D, Conv)                            [b:1,h:1,w:1,c:32]    128/512                  128                _ULite_b5_pw1_Conv_output_0   |                                          Conv2D_[59]                          
------ -------------------------------------------------------------------------- --------------------- ---------------- ----------- ------------------------------------------ --- -------------------- ------------------- ------------------------------------ 
73     _ULite_b5_dw3_Add_1_output_0 (Eltwise, Add)                                [b:1,h:1,w:1,c:32]                              32                 _ULite_b5_dw3_Add_output_0   |                                          Eltwise/add_[62]                     
                                                                                                                                               _ULite_b5_dw3_dw_w_Conv_output_0   | 
------ -------------------------------------------------------------------------- --------------------- ---------------- ----------- ------------------------------------------ --- -------------------- ------------------- ------------------------------------ 
74     _ULite_b5_Concat_output_0 (Concat, Concat)                                 [b:1,h:1,w:1,c:128]                                               _ULite_b5_pw1_Conv_output_0   |                                          Concat_[71]                          
                                                                                                                                                   _ULite_b5_dw1_Add_1_output_0   | 
                                                                                                                                                   _ULite_b5_dw2_Add_1_output_0   | 
                                                                                                                                                   _ULite_b5_dw3_Add_1_output_0   | 
------ -------------------------------------------------------------------------- --------------------- ---------------- ----------- ------------------------------------------ --- -------------------- ------------------- ------------------------------------ 
75     _ULite_b5_bn_BatchNormalization_output_0 (ScaleBias, BatchNormalization)   [b:1,h:1,w:1,c:128]   256/1,024                256                  _ULite_b5_Concat_output_0   | -1,024(-100.0%)      -256(-100.0%)       
------ -------------------------------------------------------------------------- --------------------- ---------------- ----------- ------------------------------------------ --- -------------------- ------------------- ------------------------------------ 
76     _ULite_b5_pw2_Conv_output_0 (Conv2D, Conv)                                 [b:1,h:1,w:1,c:128]   16,512/66,048         16,512   _ULite_b5_bn_BatchNormalization_output_0   |                                          Conv2D_[72]                          
------ -------------------------------------------------------------------------- --------------------- ---------------- ----------- ------------------------------------------ --- -------------------- ------------------- ------------------------------------ 
77     _ULite_b5_act_Div_output_0 (Eltwise, Div)                                  [b:1,h:1,w:1,c:128]                            640                _ULite_b5_pw2_Conv_output_0   |                                          Eltwise/div_[73]                     
                                                                                                                                                _ULite_e1_act_Constant_output_0   | 
------ -------------------------------------------------------------------------- --------------------- ---------------- ----------- ------------------------------------------ --- -------------------- ------------------- ------------------------------------ 
78     _ULite_b5_act_Erf_output_0 (Nonlinearity, Erf)                             [b:1,h:1,w:1,c:128]                            256                 _ULite_b5_act_Div_output_0   |                                          Nonlinearity_[74]                    
------ -------------------------------------------------------------------------- --------------------- ---------------- ----------- ------------------------------------------ --- -------------------- ------------------- ------------------------------------ 
79     _ULite_b5_act_Add_output_0 (Eltwise, Add)                                  [b:1,h:1,w:1,c:128]                            128                 _ULite_b5_act_Erf_output_0   | +1,024(+100.0%)      +128(+100.0%)       ScaleBias_[75]                       
                                                                                                                                              _ULite_e1_act_Constant_1_output_0   | 
------ -------------------------------------------------------------------------- --------------------- ---------------- ----------- ------------------------------------------ --- -------------------- ------------------- ------------------------------------ 
80     _ULite_b5_act_Mul_output_0 (Eltwise, Mul)                                  [b:1,h:1,w:1,c:128]                            128                _ULite_b5_pw2_Conv_output_0   |                                          Eltwise/mul_[76]                     
                                                                                                                                                     _ULite_b5_act_Add_output_0   | 
------ -------------------------------------------------------------------------- --------------------- ---------------- ----------- ------------------------------------------ --- -------------------- ------------------- ------------------------------------ 
81     _ULite_b5_act_Mul_1_output_0 (Eltwise, Mul)                                [b:1,h:1,w:1,c:128]                            128                 _ULite_b5_act_Mul_output_0   | +1,024(+100.0%)      +128(+100.0%)       ScaleBias_[77]                       
                                                                                                                                              _ULite_e1_act_Constant_2_output_0   | 
------ -------------------------------------------------------------------------- --------------------- ---------------- ----------- ------------------------------------------ --- -------------------- ------------------- ------------------------------------ 
82     _ULite_d3_up_Resize_output_0 (Resize, Resize)                              [b:1,h:2,w:2,c:128]                                              _ULite_b5_act_Mul_1_output_0   |                                          Resize_[78]                          
------ -------------------------------------------------------------------------- --------------------- ---------------- ----------- ------------------------------------------ --- -------------------- ------------------- ------------------------------------ 
83     _ULite_d3_Concat_output_0 (Concat, Concat)                                 [b:1,h:2,w:2,c:192]                                              _ULite_d3_up_Resize_output_0   |                                          Concat_[79]                          
                                                                                                                                       _ULite_e3_bn_BatchNormalization_output_0   | 
------ -------------------------------------------------------------------------- --------------------- ---------------- ----------- ------------------------------------------ --- -------------------- ------------------- ------------------------------------ 
84     _ULite_d3_pw_Conv_output_0 (Conv2D, Conv)                                  [b:1,h:2,w:2,c:64]    12,352/49,408         49,216                  _ULite_d3_Concat_output_0   |                                          Conv2D_[80]                          
------ -------------------------------------------------------------------------- --------------------- ---------------- ----------- ------------------------------------------ --- -------------------- ------------------- ------------------------------------ 
85     _ULite_d3_dw_dw_h_Conv_output_0 (Conv2D, Conv)                             [b:1,h:2,w:2,c:64]    512/2,048              1,856                 _ULite_d3_pw_Conv_output_0   |                                          Conv2D_[82]                          
------ -------------------------------------------------------------------------- --------------------- ---------------- ----------- ------------------------------------------ --- -------------------- ------------------- ------------------------------------ 
86     _ULite_d3_dw_Add_output_0 (Eltwise, Add)                                   [b:1,h:2,w:2,c:64]                             256                 _ULite_d3_pw_Conv_output_0   |                                          Eltwise/add_[83]                     
                                                                                                                                                _ULite_d3_dw_dw_h_Conv_output_0   | 
------ -------------------------------------------------------------------------- --------------------- ---------------- ----------- ------------------------------------------ --- -------------------- ------------------- ------------------------------------ 
87     _ULite_d3_dw_dw_w_Conv_output_0 (Conv2D, Conv)                             [b:1,h:2,w:2,c:64]    512/2,048              1,856                 _ULite_d3_pw_Conv_output_0   |                                          Conv2D_[81]                          
------ -------------------------------------------------------------------------- --------------------- ---------------- ----------- ------------------------------------------ --- -------------------- ------------------- ------------------------------------ 
88     _ULite_d3_dw_Add_1_output_0 (Eltwise, Add)                                 [b:1,h:2,w:2,c:64]                             256                  _ULite_d3_dw_Add_output_0   |                                          Eltwise/add_[84]                     
                                                                                                                                                _ULite_d3_dw_dw_w_Conv_output_0   | 
------ -------------------------------------------------------------------------- --------------------- ---------------- ----------- ------------------------------------------ --- -------------------- ------------------- ------------------------------------ 
89     _ULite_d3_pw2_Conv_output_0 (Conv2D, Conv)                                 [b:1,h:2,w:2,c:64]    4,160/16,640          16,448                _ULite_d3_dw_Add_1_output_0   |                                          Conv2D_[85]                          
------ -------------------------------------------------------------------------- --------------------- ---------------- ----------- ------------------------------------------ --- -------------------- ------------------- ------------------------------------ 
90     _ULite_d3_act_Div_output_0 (Eltwise, Div)                                  [b:1,h:2,w:2,c:64]                           1,280                _ULite_d3_pw2_Conv_output_0   |                                          Eltwise/div_[86]                     
                                                                                                                                                _ULite_e1_act_Constant_output_0   | 
------ -------------------------------------------------------------------------- --------------------- ---------------- ----------- ------------------------------------------ --- -------------------- ------------------- ------------------------------------ 
91     _ULite_d3_act_Erf_output_0 (Nonlinearity, Erf)                             [b:1,h:2,w:2,c:64]                             512                 _ULite_d3_act_Div_output_0   |                                          Nonlinearity_[87]                    
------ -------------------------------------------------------------------------- --------------------- ---------------- ----------- ------------------------------------------ --- -------------------- ------------------- ------------------------------------ 
92     _ULite_d3_act_Add_output_0 (Eltwise, Add)                                  [b:1,h:2,w:2,c:64]                             256                 _ULite_d3_act_Erf_output_0   | +512(+100.0%)        +256(+100.0%)       ScaleBias_[88]                       
                                                                                                                                              _ULite_e1_act_Constant_1_output_0   | 
------ -------------------------------------------------------------------------- --------------------- ---------------- ----------- ------------------------------------------ --- -------------------- ------------------- ------------------------------------ 
93     _ULite_d3_act_Mul_output_0 (Eltwise, Mul)                                  [b:1,h:2,w:2,c:64]                             256                _ULite_d3_pw2_Conv_output_0   |                                          Eltwise/mul_[89]                     
                                                                                                                                                     _ULite_d3_act_Add_output_0   | 
------ -------------------------------------------------------------------------- --------------------- ---------------- ----------- ------------------------------------------ --- -------------------- ------------------- ------------------------------------ 
94     _ULite_d3_act_Mul_1_output_0 (Eltwise, Mul)                                [b:1,h:2,w:2,c:64]                             256                 _ULite_d3_act_Mul_output_0   | +512(+100.0%)        +256(+100.0%)       ScaleBias_[90]                       
                                                                                                                                              _ULite_e1_act_Constant_2_output_0   | 
------ -------------------------------------------------------------------------- --------------------- ---------------- ----------- ------------------------------------------ --- -------------------- ------------------- ------------------------------------ 
95     _ULite_d2_up_Resize_output_0 (Resize, Resize)                              [b:1,h:4,w:4,c:64]                                               _ULite_d3_act_Mul_1_output_0   |                                          Resize_[91]                          
------ -------------------------------------------------------------------------- --------------------- ---------------- ----------- ------------------------------------------ --- -------------------- ------------------- ------------------------------------ 
96     _ULite_d2_Concat_output_0 (Concat, Concat)                                 [b:1,h:4,w:4,c:96]                                               _ULite_d2_up_Resize_output_0   |                                          Concat_[92]                          
                                                                                                                                       _ULite_e2_bn_BatchNormalization_output_0   | 
------ -------------------------------------------------------------------------- --------------------- ---------------- ----------- ------------------------------------------ --- -------------------- ------------------- ------------------------------------ 
97     _ULite_d2_pw_Conv_output_0 (Conv2D, Conv)                                  [b:1,h:4,w:4,c:32]    3,104/12,416          49,184                  _ULite_d2_Concat_output_0   |                                          Conv2D_[93]                          
------ -------------------------------------------------------------------------- --------------------- ---------------- ----------- ------------------------------------------ --- -------------------- ------------------- ------------------------------------ 
98     _ULite_d2_dw_dw_h_Conv_output_0 (Conv2D, Conv)                             [b:1,h:4,w:4,c:32]    256/1,024              3,616                 _ULite_d2_pw_Conv_output_0   |                                          Conv2D_[95]                          
------ -------------------------------------------------------------------------- --------------------- ---------------- ----------- ------------------------------------------ --- -------------------- ------------------- ------------------------------------ 
99     _ULite_d2_dw_Add_output_0 (Eltwise, Add)                                   [b:1,h:4,w:4,c:32]                             512                 _ULite_d2_pw_Conv_output_0   |                                          Eltwise/add_[96]                     
                                                                                                                                                _ULite_d2_dw_dw_h_Conv_output_0   | 
------ -------------------------------------------------------------------------- --------------------- ---------------- ----------- ------------------------------------------ --- -------------------- ------------------- ------------------------------------ 
100    _ULite_d2_dw_dw_w_Conv_output_0 (Conv2D, Conv)                             [b:1,h:4,w:4,c:32]    256/1,024              3,616                 _ULite_d2_pw_Conv_output_0   |                                          Conv2D_[94]                          
------ -------------------------------------------------------------------------- --------------------- ---------------- ----------- ------------------------------------------ --- -------------------- ------------------- ------------------------------------ 
101    _ULite_d2_dw_Add_1_output_0 (Eltwise, Add)                                 [b:1,h:4,w:4,c:32]                             512                  _ULite_d2_dw_Add_output_0   |                                          Eltwise/add_[97]                     
                                                                                                                                                _ULite_d2_dw_dw_w_Conv_output_0   | 
------ -------------------------------------------------------------------------- --------------------- ---------------- ----------- ------------------------------------------ --- -------------------- ------------------- ------------------------------------ 
102    _ULite_d2_pw2_Conv_output_0 (Conv2D, Conv)                                 [b:1,h:4,w:4,c:32]    1,056/4,224           16,416                _ULite_d2_dw_Add_1_output_0   |                                          Conv2D_[98]                          
------ -------------------------------------------------------------------------- --------------------- ---------------- ----------- ------------------------------------------ --- -------------------- ------------------- ------------------------------------ 
103    _ULite_d2_act_Div_output_0 (Eltwise, Div)                                  [b:1,h:4,w:4,c:32]                           2,560                _ULite_d2_pw2_Conv_output_0   |                                          Eltwise/div_[99]                     
                                                                                                                                                _ULite_e1_act_Constant_output_0   | 
------ -------------------------------------------------------------------------- --------------------- ---------------- ----------- ------------------------------------------ --- -------------------- ------------------- ------------------------------------ 
104    _ULite_d2_act_Erf_output_0 (Nonlinearity, Erf)                             [b:1,h:4,w:4,c:32]                           1,024                 _ULite_d2_act_Div_output_0   |                                          Nonlinearity_[100]                   
------ -------------------------------------------------------------------------- --------------------- ---------------- ----------- ------------------------------------------ --- -------------------- ------------------- ------------------------------------ 
105    _ULite_d2_act_Add_output_0 (Eltwise, Add)                                  [b:1,h:4,w:4,c:32]                             512                 _ULite_d2_act_Erf_output_0   | +256(+100.0%)        +512(+100.0%)       ScaleBias_[101]                      
                                                                                                                                              _ULite_e1_act_Constant_1_output_0   | 
------ -------------------------------------------------------------------------- --------------------- ---------------- ----------- ------------------------------------------ --- -------------------- ------------------- ------------------------------------ 
106    _ULite_d2_act_Mul_output_0 (Eltwise, Mul)                                  [b:1,h:4,w:4,c:32]                             512                _ULite_d2_pw2_Conv_output_0   |                                          Eltwise/mul_[102]                    
                                                                                                                                                     _ULite_d2_act_Add_output_0   | 
------ -------------------------------------------------------------------------- --------------------- ---------------- ----------- ------------------------------------------ --- -------------------- ------------------- ------------------------------------ 
107    _ULite_d2_act_Mul_1_output_0 (Eltwise, Mul)                                [b:1,h:4,w:4,c:32]                             512                 _ULite_d2_act_Mul_output_0   | +256(+100.0%)        +512(+100.0%)       ScaleBias_[103]                      
                                                                                                                                              _ULite_e1_act_Constant_2_output_0   | 
------ -------------------------------------------------------------------------- --------------------- ---------------- ----------- ------------------------------------------ --- -------------------- ------------------- ------------------------------------ 
108    _ULite_d1_up_Resize_output_0 (Resize, Resize)                              [b:1,h:8,w:8,c:32]                                               _ULite_d2_act_Mul_1_output_0   |                                          Resize_[104]                         
------ -------------------------------------------------------------------------- --------------------- ---------------- ----------- ------------------------------------------ --- -------------------- ------------------- ------------------------------------ 
109    _ULite_d1_Concat_output_0 (Concat, Concat)                                 [b:1,h:8,w:8,c:48]                                               _ULite_d1_up_Resize_output_0   |                                          Concat_[105]                         
                                                                                                                                       _ULite_e1_bn_BatchNormalization_output_0   | 
------ -------------------------------------------------------------------------- --------------------- ---------------- ----------- ------------------------------------------ --- -------------------- ------------------- ------------------------------------ 
110    _ULite_d1_pw_Conv_output_0 (Conv2D, Conv)                                  [b:1,h:8,w:8,c:16]    784/3,136             49,168                  _ULite_d1_Concat_output_0   |                                          Conv2D_[106]                         
------ -------------------------------------------------------------------------- --------------------- ---------------- ----------- ------------------------------------------ --- -------------------- ------------------- ------------------------------------ 
111    _ULite_d1_dw_dw_h_Conv_output_0 (Conv2D, Conv)                             [b:1,h:8,w:8,c:16]    128/512                7,184                 _ULite_d1_pw_Conv_output_0   |                                          Conv2D_[108]                         
------ -------------------------------------------------------------------------- --------------------- ---------------- ----------- ------------------------------------------ --- -------------------- ------------------- ------------------------------------ 
112    _ULite_d1_dw_Add_output_0 (Eltwise, Add)                                   [b:1,h:8,w:8,c:16]                           1,024                 _ULite_d1_pw_Conv_output_0   |                                          Eltwise/add_[109]                    
                                                                                                                                                _ULite_d1_dw_dw_h_Conv_output_0   | 
------ -------------------------------------------------------------------------- --------------------- ---------------- ----------- ------------------------------------------ --- -------------------- ------------------- ------------------------------------ 
113    _ULite_d1_dw_dw_w_Conv_output_0 (Conv2D, Conv)                             [b:1,h:8,w:8,c:16]    128/512                7,184                 _ULite_d1_pw_Conv_output_0   |                                          Conv2D_[107]                         
------ -------------------------------------------------------------------------- --------------------- ---------------- ----------- ------------------------------------------ --- -------------------- ------------------- ------------------------------------ 
114    _ULite_d1_dw_Add_1_output_0 (Eltwise, Add)                                 [b:1,h:8,w:8,c:16]                           1,024                  _ULite_d1_dw_Add_output_0   |                                          Eltwise/add_[110]                    
                                                                                                                                                _ULite_d1_dw_dw_w_Conv_output_0   | 
------ -------------------------------------------------------------------------- --------------------- ---------------- ----------- ------------------------------------------ --- -------------------- ------------------- ------------------------------------ 
115    _ULite_d1_pw2_Conv_output_0 (Conv2D, Conv)                                 [b:1,h:8,w:8,c:16]    272/1,088             16,400                _ULite_d1_dw_Add_1_output_0   |                                          Conv2D_[111]                         
------ -------------------------------------------------------------------------- --------------------- ---------------- ----------- ------------------------------------------ --- -------------------- ------------------- ------------------------------------ 
116    _ULite_d1_act_Div_output_0 (Eltwise, Div)                                  [b:1,h:8,w:8,c:16]                           5,120                _ULite_d1_pw2_Conv_output_0   |                                          Eltwise/div_[112]                    
                                                                                                                                                _ULite_e1_act_Constant_output_0   | 
------ -------------------------------------------------------------------------- --------------------- ---------------- ----------- ------------------------------------------ --- -------------------- ------------------- ------------------------------------ 
117    _ULite_d1_act_Erf_output_0 (Nonlinearity, Erf)                             [b:1,h:8,w:8,c:16]                           2,048                 _ULite_d1_act_Div_output_0   |                                          Nonlinearity_[113]                   
------ -------------------------------------------------------------------------- --------------------- ---------------- ----------- ------------------------------------------ --- -------------------- ------------------- ------------------------------------ 
118    _ULite_d1_act_Add_output_0 (Eltwise, Add)                                  [b:1,h:8,w:8,c:16]                           1,024                 _ULite_d1_act_Erf_output_0   | +128(+100.0%)        +1,024(+100.0%)     ScaleBias_[114]                      
                                                                                                                                              _ULite_e1_act_Constant_1_output_0   | 
------ -------------------------------------------------------------------------- --------------------- ---------------- ----------- ------------------------------------------ --- -------------------- ------------------- ------------------------------------ 
119    _ULite_d1_act_Mul_output_0 (Eltwise, Mul)                                  [b:1,h:8,w:8,c:16]                           1,024                _ULite_d1_pw2_Conv_output_0   |                                          Eltwise/mul_[115]                    
                                                                                                                                                     _ULite_d1_act_Add_output_0   | 
------ -------------------------------------------------------------------------- --------------------- ---------------- ----------- ------------------------------------------ --- -------------------- ------------------- ------------------------------------ 
120    _ULite_d1_act_Mul_1_output_0 (Eltwise, Mul)                                [b:1,h:8,w:8,c:16]                           1,024                 _ULite_d1_act_Mul_output_0   | +128(+100.0%)        +1,024(+100.0%)     ScaleBias_[116]                      
                                                                                                                                              _ULite_e1_act_Constant_2_output_0   | 
------ -------------------------------------------------------------------------- --------------------- ---------------- ----------- ------------------------------------------ --- -------------------- ------------------- ------------------------------------ 
121    _conv3_conv_Conv_output_0 (Conv2D, Conv)                                   [b:1,h:9,w:9,c:32]    8,224/32,896         663,584               _ULite_d1_act_Mul_1_output_0   |                                          Conv2D_[117]                         
------ -------------------------------------------------------------------------- --------------------- ---------------- ----------- ------------------------------------------ --- -------------------- ------------------- ------------------------------------ 
122    _conv3_Relu_output_0 (Nonlinearity, Relu)                                  [b:1,h:9,w:9,c:32]                           2,592                  _conv3_conv_Conv_output_0   |                                          Nonlinearity_[118]                   
------ -------------------------------------------------------------------------- --------------------- ---------------- ----------- ------------------------------------------ --- -------------------- ------------------- ------------------------------------ 
123    _Concat_output_0 (Concat, Concat)                                          [b:1,h:9,w:9,c:74]                                       _residues_residues_3_Relu_1_output_0   |                                          Concat_[119]                         
                                                                                                                                                           _conv3_Relu_output_0   | 
------ -------------------------------------------------------------------------- --------------------- ---------------- ----------- ------------------------------------------ --- -------------------- ------------------- ------------------------------------ 
124    _conv4_conv_Conv_output_0 (Conv2D, Conv)                                   [b:1,h:9,w:9,c:128]   85,376/341,504     6,905,216                           _Concat_output_0   |                                          Conv2D_[120]                         
------ -------------------------------------------------------------------------- --------------------- ---------------- ----------- ------------------------------------------ --- -------------------- ------------------- ------------------------------------ 
125    _conv4_Relu_output_0 (Nonlinearity, Relu)                                  [b:1,h:9,w:9,c:128]                         10,368                  _conv4_conv_Conv_output_0   |                                          Nonlinearity_[121]                   
------ -------------------------------------------------------------------------- --------------------- ---------------- ----------- ------------------------------------------ --- -------------------- ------------------- ------------------------------------ 
126    _policy_head_conv_conv_Conv_output_0 (Conv2D, Conv)                        [b:1,h:9,w:9,c:2]     258/1,032             20,738                       _conv4_Relu_output_0   |                                          Conv2D_[129]                         
------ -------------------------------------------------------------------------- --------------------- ---------------- ----------- ------------------------------------------ --- -------------------- ------------------- ------------------------------------ 
127    _policy_head_conv_Relu_output_0 (Nonlinearity, Relu)                       [b:1,h:9,w:9,c:2]                              162       _policy_head_conv_conv_Conv_output_0   |                                          Nonlinearity_[130]                   
------ -------------------------------------------------------------------------- --------------------- ---------------- ----------- ------------------------------------------ --- -------------------- ------------------- ------------------------------------ 
128    _policy_head_Flatten_output_0 (Reshape, Flatten)                           [b:1,c:162]                                                   _policy_head_conv_Relu_output_0   |                      +81(+100.0%)        Transpose_[131]                      
------ -------------------------------------------------------------------------- --------------------- ---------------- ----------- ------------------------------------------ --- -------------------- ------------------- ------------------------------------ 
129    _policy_head_fc_Gemm_output_0 (Gemm, Gemm)                                 [b:1,c:81]                                  13,203              _policy_head_Flatten_output_0   |                      -13,203(-100.0%)    
                                                                                                                                                          policy_head_fc_weight   | 
                                                                                                                                                            policy_head_fc_bias   | 
------ -------------------------------------------------------------------------- --------------------- ---------------- ----------- ------------------------------------------ --- -------------------- ------------------- ------------------------------------ 
130    output_softmax (Nonlinearity, LogSoftmax)                                  [b:1,c:81]                                   1,215              _policy_head_fc_Gemm_output_0   |                                          Nonlinearity_[133]                   
------ -------------------------------------------------------------------------- --------------------- ---------------- ----------- ------------------------------------------ --- -------------------- ------------------- ------------------------------------ 
131    output (Nonlinearity, LogSoftmax)                                          [b:1,c:81]                                     810                             output_softmax   | +516(+100.0%)        +10,369(+1280.1%)   Conv2D_/Nonlinearity_[o][122, 134]   
       _value_head_conv_conv_Conv_output_0 (Conv2D, Conv)                         [b:1,h:9,w:9,c:1]     129/516               10,369                       _conv4_Relu_output_0   | -516(-100.0%)        -10,369(-100.0%)    
------ -------------------------------------------------------------------------- --------------------- ---------------- ----------- ------------------------------------------ --- -------------------- ------------------- ------------------------------------ 
132    _value_head_conv_Relu_output_0 (Nonlinearity, Relu)                        [b:1,h:9,w:9,c:1]                               81        _value_head_conv_conv_Conv_output_0   |                                          Nonlinearity_[123]                   
------ -------------------------------------------------------------------------- --------------------- ---------------- ----------- ------------------------------------------ --- -------------------- ------------------- ------------------------------------ 
133    _value_head_Flatten_output_0 (Reshape, Flatten)                            [b:1,c:81]                                                     _value_head_conv_Relu_output_0   |                      +40(+100.0%)        Transpose_[124]                      
------ -------------------------------------------------------------------------- --------------------- ---------------- ----------- ------------------------------------------ --- -------------------- ------------------- ------------------------------------ 
134    _value_head_fc_fc_0_Gemm_output_0 (Gemm, Gemm)                             [b:1,c:128]                                 10,496               _value_head_Flatten_output_0   |                      -10,496(-100.0%)    
                                                                                                                                                         value_head_fc_0_weight   | 
                                                                                                                                                           value_head_fc_0_bias   | 
------ -------------------------------------------------------------------------- --------------------- ---------------- ----------- ------------------------------------------ --- -------------------- ------------------- ------------------------------------ 
135    _value_head_fc_fc_1_Relu_output_0 (Nonlinearity, Relu)                     [b:1,c:128]                                    128          _value_head_fc_fc_0_Gemm_output_0   |                                          Nonlinearity_[126]                   
------ -------------------------------------------------------------------------- --------------------- ---------------- ----------- ------------------------------------------ --- -------------------- ------------------- ------------------------------------ 
136    _value_head_fc_fc_2_Gemm_output_0 (Gemm, Gemm)                             [b:1,c:1]                                      129          _value_head_fc_fc_1_Relu_output_0   |                      -129(-100.0%)       
                                                                                                                                                         value_head_fc_2_weight   | 
                                                                                                                                                           value_head_fc_2_bias   | 
------ -------------------------------------------------------------------------- --------------------- ---------------- ----------- ------------------------------------------ --- -------------------- ------------------- ------------------------------------ 
137    node_384 (Nonlinearity, Tanh)                                              [b:1,c:1]                                       10          _value_head_fc_fc_2_Gemm_output_0   |                                          Nonlinearity_[o][128]                
------ -------------------------------------------------------------------------- --------------------- ---------------- ----------- ------------------------------------------ --- -------------------- ------------------- ------------------------------------ 
model/c-model: macc=19,254,565/19,260,049 +5,484(+0.0%) weights=1,265,664/1,268,472 +2,808(+0.2%) activations=--/57,408 io=--/0



Generated C-graph summary
------------------------------------------------------------------------------------------------------------------------
model name            : best_policy_value_net_simplify
c-name                : network
c-node #              : 135
c-array #             : 253
activations size      : 57408 (1 segment)
weights size          : 1268472 (1 segment)
macc                  : 19260049
inputs                : ['input_output']
outputs               : ['output_output', 'node_384_output']

C-Arrays (253)
------ -------------------------------------------------- -------------- ------------------------- ------------- --------- 
c_id   name (*_array)                                     item/size      domain/mem-pool           c-type        comment   
------ -------------------------------------------------- -------------- ------------------------- ------------- --------- 
0      _Concat_output_0_output                            5994/23976     activations/**default**   float                   
1      _ULite_b5_Concat_output_0_output                   128/512        activations/**default**   float                   
2      _ULite_b5_act_Add_output_0_output                  128/512        activations/**default**   float                   
3      _ULite_b5_act_Div_output_0_output                  128/512        activations/**default**   float                   
4      _ULite_b5_act_Erf_output_0_output                  128/512        activations/**default**   float                   
5      _ULite_b5_act_Mul_1_output_0_bias                  128/512        weights/weights           const float             
6      _ULite_b5_act_Mul_1_output_0_output                128/512        activations/**default**   float                   
7      _ULite_b5_act_Mul_1_output_0_scale                 128/512        weights/weights           const float             
8      _ULite_b5_act_Mul_output_0_output                  128/512        activations/**default**   float                   
9      _ULite_b5_dw1_Add_1_output_0_output                32/128         activations/**default**   float                   
10     _ULite_b5_dw1_Add_output_0_output                  32/128         activations/**default**   float                   
11     _ULite_b5_dw1_dw_h_Conv_output_0_bias              32/128         weights/weights           const float             
12     _ULite_b5_dw1_dw_h_Conv_output_0_output            32/128         activations/**default**   float                   
13     _ULite_b5_dw1_dw_h_Conv_output_0_weights           96/384         weights/weights           const float             
14     _ULite_b5_dw1_dw_w_Conv_output_0_bias              32/128         weights/weights           const float             
15     _ULite_b5_dw1_dw_w_Conv_output_0_output            32/128         activations/**default**   float                   
16     _ULite_b5_dw1_dw_w_Conv_output_0_weights           96/384         weights/weights           const float             
17     _ULite_b5_dw2_Add_1_output_0_output                32/128         activations/**default**   float                   
18     _ULite_b5_dw2_Add_output_0_output                  32/128         activations/**default**   float                   
19     _ULite_b5_dw2_dw_h_Conv_output_0_bias              32/128         weights/weights           const float             
20     _ULite_b5_dw2_dw_h_Conv_output_0_output            32/128         activations/**default**   float                   
21     _ULite_b5_dw2_dw_h_Conv_output_0_weights           96/384         weights/weights           const float             
22     _ULite_b5_dw2_dw_w_Conv_output_0_bias              32/128         weights/weights           const float             
23     _ULite_b5_dw2_dw_w_Conv_output_0_output            32/128         activations/**default**   float                   
24     _ULite_b5_dw2_dw_w_Conv_output_0_weights           96/384         weights/weights           const float             
25     _ULite_b5_dw3_Add_1_output_0_output                32/128         activations/**default**   float                   
26     _ULite_b5_dw3_Add_output_0_output                  32/128         activations/**default**   float                   
27     _ULite_b5_dw3_dw_h_Conv_output_0_bias              32/128         weights/weights           const float             
28     _ULite_b5_dw3_dw_h_Conv_output_0_output            32/128         activations/**default**   float                   
29     _ULite_b5_dw3_dw_h_Conv_output_0_weights           96/384         weights/weights           const float             
30     _ULite_b5_dw3_dw_w_Conv_output_0_bias              32/128         weights/weights           const float             
31     _ULite_b5_dw3_dw_w_Conv_output_0_output            32/128         activations/**default**   float                   
32     _ULite_b5_dw3_dw_w_Conv_output_0_weights           96/384         weights/weights           const float             
33     _ULite_b5_pw1_Conv_output_0_bias                   32/128         weights/weights           const float             
34     _ULite_b5_pw1_Conv_output_0_output                 32/128         activations/**default**   float                   
35     _ULite_b5_pw1_Conv_output_0_weights                4096/16384     weights/weights           const float             
36     _ULite_b5_pw2_Conv_output_0_bias                   128/512        weights/weights           const float             
37     _ULite_b5_pw2_Conv_output_0_output                 128/512        activations/**default**   float                   
38     _ULite_b5_pw2_Conv_output_0_weights                16384/65536    weights/weights           const float             
39     _ULite_d1_Concat_output_0_output                   3072/12288     activations/**default**   float                   
40     _ULite_d1_act_Add_output_0_bias                    16/64          weights/weights           const float             
41     _ULite_d1_act_Add_output_0_output                  1024/4096      activations/**default**   float                   
42     _ULite_d1_act_Add_output_0_scale                   16/64          weights/weights           const float             
43     _ULite_d1_act_Div_output_0_output                  1024/4096      activations/**default**   float                   
44     _ULite_d1_act_Erf_output_0_output                  1024/4096      activations/**default**   float                   
45     _ULite_d1_act_Mul_1_output_0_bias                  16/64          weights/weights           const float             
46     _ULite_d1_act_Mul_1_output_0_output                1024/4096      activations/**default**   float                   
47     _ULite_d1_act_Mul_1_output_0_scale                 16/64          weights/weights           const float             
48     _ULite_d1_act_Mul_output_0_output                  1024/4096      activations/**default**   float                   
49     _ULite_d1_dw_Add_1_output_0_output                 1024/4096      activations/**default**   float                   
50     _ULite_d1_dw_Add_output_0_output                   1024/4096      activations/**default**   float                   
51     _ULite_d1_dw_dw_h_Conv_output_0_bias               16/64          weights/weights           const float             
52     _ULite_d1_dw_dw_h_Conv_output_0_output             1024/4096      activations/**default**   float                   
53     _ULite_d1_dw_dw_h_Conv_output_0_weights            112/448        weights/weights           const float             
54     _ULite_d1_dw_dw_w_Conv_output_0_bias               16/64          weights/weights           const float             
55     _ULite_d1_dw_dw_w_Conv_output_0_output             1024/4096      activations/**default**   float                   
56     _ULite_d1_dw_dw_w_Conv_output_0_weights            112/448        weights/weights           const float             
57     _ULite_d1_pw2_Conv_output_0_bias                   16/64          weights/weights           const float             
58     _ULite_d1_pw2_Conv_output_0_output                 1024/4096      activations/**default**   float                   
59     _ULite_d1_pw2_Conv_output_0_weights                256/1024       weights/weights           const float             
60     _ULite_d1_pw_Conv_output_0_bias                    16/64          weights/weights           const float             
61     _ULite_d1_pw_Conv_output_0_output                  1024/4096      activations/**default**   float                   
62     _ULite_d1_pw_Conv_output_0_weights                 768/3072       weights/weights           const float             
63     _ULite_d1_up_Resize_output_0_output                2048/8192      activations/**default**   float                   
64     _ULite_d2_Concat_output_0_output                   1536/6144      activations/**default**   float                   
65     _ULite_d2_act_Add_output_0_output                  512/2048       activations/**default**   float                   
66     _ULite_d2_act_Div_output_0_output                  512/2048       activations/**default**   float                   
67     _ULite_d2_act_Erf_output_0_output                  512/2048       activations/**default**   float                   
68     _ULite_d2_act_Mul_1_output_0_output                512/2048       activations/**default**   float                   
69     _ULite_d2_act_Mul_output_0_output                  512/2048       activations/**default**   float                   
70     _ULite_d2_dw_Add_1_output_0_output                 512/2048       activations/**default**   float                   
71     _ULite_d2_dw_Add_output_0_output                   512/2048       activations/**default**   float                   
72     _ULite_d2_dw_dw_h_Conv_output_0_bias               32/128         weights/weights           const float             
73     _ULite_d2_dw_dw_h_Conv_output_0_output             512/2048       activations/**default**   float                   
74     _ULite_d2_dw_dw_h_Conv_output_0_weights            224/896        weights/weights           const float             
75     _ULite_d2_dw_dw_w_Conv_output_0_bias               32/128         weights/weights           const float             
76     _ULite_d2_dw_dw_w_Conv_output_0_output             512/2048       activations/**default**   float                   
77     _ULite_d2_dw_dw_w_Conv_output_0_weights            224/896        weights/weights           const float             
78     _ULite_d2_pw2_Conv_output_0_bias                   32/128         weights/weights           const float             
79     _ULite_d2_pw2_Conv_output_0_output                 512/2048       activations/**default**   float                   
80     _ULite_d2_pw2_Conv_output_0_weights                1024/4096      weights/weights           const float             
81     _ULite_d2_pw_Conv_output_0_bias                    32/128         weights/weights           const float             
82     _ULite_d2_pw_Conv_output_0_output                  512/2048       activations/**default**   float                   
83     _ULite_d2_pw_Conv_output_0_weights                 3072/12288     weights/weights           const float             
84     _ULite_d2_up_Resize_output_0_output                1024/4096      activations/**default**   float                   
85     _ULite_d3_Concat_output_0_output                   768/3072       activations/**default**   float                   
86     _ULite_d3_act_Add_output_0_output                  256/1024       activations/**default**   float                   
87     _ULite_d3_act_Div_output_0_output                  256/1024       activations/**default**   float                   
88     _ULite_d3_act_Erf_output_0_output                  256/1024       activations/**default**   float                   
89     _ULite_d3_act_Mul_1_output_0_output                256/1024       activations/**default**   float                   
90     _ULite_d3_act_Mul_output_0_output                  256/1024       activations/**default**   float                   
91     _ULite_d3_dw_Add_1_output_0_output                 256/1024       activations/**default**   float                   
92     _ULite_d3_dw_Add_output_0_output                   256/1024       activations/**default**   float                   
93     _ULite_d3_dw_dw_h_Conv_output_0_bias               64/256         weights/weights           const float             
94     _ULite_d3_dw_dw_h_Conv_output_0_output             256/1024       activations/**default**   float                   
95     _ULite_d3_dw_dw_h_Conv_output_0_weights            448/1792       weights/weights           const float             
96     _ULite_d3_dw_dw_w_Conv_output_0_bias               64/256         weights/weights           const float             
97     _ULite_d3_dw_dw_w_Conv_output_0_output             256/1024       activations/**default**   float                   
98     _ULite_d3_dw_dw_w_Conv_output_0_weights            448/1792       weights/weights           const float             
99     _ULite_d3_pw2_Conv_output_0_bias                   64/256         weights/weights           const float             
100    _ULite_d3_pw2_Conv_output_0_output                 256/1024       activations/**default**   float                   
101    _ULite_d3_pw2_Conv_output_0_weights                4096/16384     weights/weights           const float             
102    _ULite_d3_pw_Conv_output_0_bias                    64/256         weights/weights           const float             
103    _ULite_d3_pw_Conv_output_0_output                  256/1024       activations/**default**   float                   
104    _ULite_d3_pw_Conv_output_0_weights                 12288/49152    weights/weights           const float             
105    _ULite_d3_up_Resize_output_0_output                512/2048       activations/**default**   float                   
106    _ULite_e1_act_Add_output_0_bias                    32/128         weights/weights           const float             
107    _ULite_e1_act_Add_output_0_output                  512/2048       activations/**default**   float                   
108    _ULite_e1_act_Add_output_0_scale                   32/128         weights/weights           const float             
109    _ULite_e1_act_Constant_output_0                    1/4            weights/weights           const float             
110    _ULite_e1_act_Div_output_0_output                  512/2048       activations/**default**   float                   
111    _ULite_e1_act_Erf_output_0_output                  512/2048       activations/**default**   float                   
112    _ULite_e1_act_Mul_1_output_0_bias                  32/128         weights/weights           const float             
113    _ULite_e1_act_Mul_1_output_0_output                512/2048       activations/**default**   float                   
114    _ULite_e1_act_Mul_1_output_0_scale                 32/128         weights/weights           const float             
115    _ULite_e1_act_Mul_output_0_output                  512/2048       activations/**default**   float                   
116    _ULite_e1_bn_BatchNormalization_output_0_bias      16/64          weights/weights           const float             
117    _ULite_e1_bn_BatchNormalization_output_0_output    1024/4096      activations/**default**   float                   
118    _ULite_e1_bn_BatchNormalization_output_0_scale     16/64          weights/weights           const float             
119    _ULite_e1_dw_Add_1_output_0_output                 1024/4096      activations/**default**   float                   
120    _ULite_e1_dw_Add_output_0_output                   1024/4096      activations/**default**   float                   
121    _ULite_e1_dw_dw_h_Conv_output_0_bias               16/64          weights/weights           const float             
122    _ULite_e1_dw_dw_h_Conv_output_0_output             1024/4096      activations/**default**   float                   
123    _ULite_e1_dw_dw_h_Conv_output_0_weights            112/448        weights/weights           const float             
124    _ULite_e1_dw_dw_w_Conv_output_0_bias               16/64          weights/weights           const float             
125    _ULite_e1_dw_dw_w_Conv_output_0_output             1024/4096      activations/**default**   float                   
126    _ULite_e1_dw_dw_w_Conv_output_0_weights            112/448        weights/weights           const float             
127    _ULite_e1_pw_Conv_output_0_bias                    32/128         weights/weights           const float             
128    _ULite_e1_pw_Conv_output_0_output                  512/2048       activations/**default**   float                   
129    _ULite_e1_pw_Conv_output_0_scratch0                512/2048       activations/**default**   float                   
130    _ULite_e1_pw_Conv_output_0_weights                 512/2048       weights/weights           const float             
131    _ULite_e2_act_Add_output_0_bias                    64/256         weights/weights           const float             
132    _ULite_e2_act_Add_output_0_output                  256/1024       activations/**default**   float                   
133    _ULite_e2_act_Add_output_0_scale                   64/256         weights/weights           const float             
134    _ULite_e2_act_Div_output_0_output                  256/1024       activations/**default**   float                   
135    _ULite_e2_act_Erf_output_0_output                  256/1024       activations/**default**   float                   
136    _ULite_e2_act_Mul_1_output_0_bias                  64/256         weights/weights           const float             
137    _ULite_e2_act_Mul_1_output_0_output                256/1024       activations/**default**   float                   
138    _ULite_e2_act_Mul_1_output_0_scale                 64/256         weights/weights           const float             
139    _ULite_e2_act_Mul_output_0_output                  256/1024       activations/**default**   float                   
140    _ULite_e2_bn_BatchNormalization_output_0_bias      32/128         weights/weights           const float             
141    _ULite_e2_bn_BatchNormalization_output_0_output    512/2048       activations/**default**   float                   
142    _ULite_e2_bn_BatchNormalization_output_0_scale     32/128         weights/weights           const float             
143    _ULite_e2_dw_Add_1_output_0_output                 512/2048       activations/**default**   float                   
144    _ULite_e2_dw_Add_output_0_output                   512/2048       activations/**default**   float                   
145    _ULite_e2_dw_dw_h_Conv_output_0_bias               32/128         weights/weights           const float             
146    _ULite_e2_dw_dw_h_Conv_output_0_output             512/2048       activations/**default**   float                   
147    _ULite_e2_dw_dw_h_Conv_output_0_weights            224/896        weights/weights           const float             
148    _ULite_e2_dw_dw_w_Conv_output_0_bias               32/128         weights/weights           const float             
149    _ULite_e2_dw_dw_w_Conv_output_0_output             512/2048       activations/**default**   float                   
150    _ULite_e2_dw_dw_w_Conv_output_0_weights            224/896        weights/weights           const float             
151    _ULite_e2_pw_Conv_output_0_bias                    64/256         weights/weights           const float             
152    _ULite_e2_pw_Conv_output_0_output                  256/1024       activations/**default**   float                   
153    _ULite_e2_pw_Conv_output_0_scratch0                512/2048       activations/**default**   float                   
154    _ULite_e2_pw_Conv_output_0_weights                 2048/8192      weights/weights           const float             
155    _ULite_e3_act_Add_output_0_bias                    128/512        weights/weights           const float             
156    _ULite_e3_act_Add_output_0_output                  128/512        activations/**default**   float                   
157    _ULite_e3_act_Add_output_0_scale                   128/512        weights/weights           const float             
158    _ULite_e3_act_Div_output_0_output                  128/512        activations/**default**   float                   
159    _ULite_e3_act_Erf_output_0_output                  128/512        activations/**default**   float                   
160    _ULite_e3_act_Mul_output_0_output                  128/512        activations/**default**   float                   
161    _ULite_e3_bn_BatchNormalization_output_0_bias      64/256         weights/weights           const float             
162    _ULite_e3_bn_BatchNormalization_output_0_output    256/1024       activations/**default**   float                   
163    _ULite_e3_bn_BatchNormalization_output_0_scale     64/256         weights/weights           const float             
164    _ULite_e3_down_MaxPool_output_0_output             128/512        activations/**default**   float                   
165    _ULite_e3_dw_Add_1_output_0_output                 256/1024       activations/**default**   float                   
166    _ULite_e3_dw_Add_output_0_output                   256/1024       activations/**default**   float                   
167    _ULite_e3_dw_dw_h_Conv_output_0_bias               64/256         weights/weights           const float             
168    _ULite_e3_dw_dw_h_Conv_output_0_output             256/1024       activations/**default**   float                   
169    _ULite_e3_dw_dw_h_Conv_output_0_weights            448/1792       weights/weights           const float             
170    _ULite_e3_dw_dw_w_Conv_output_0_bias               64/256         weights/weights           const float             
171    _ULite_e3_dw_dw_w_Conv_output_0_output             256/1024       activations/**default**   float                   
172    _ULite_e3_dw_dw_w_Conv_output_0_weights            448/1792       weights/weights           const float             
173    _ULite_e3_pw_Conv_output_0_bias                    128/512        weights/weights           const float             
174    _ULite_e3_pw_Conv_output_0_output                  512/2048       activations/**default**   float                   
175    _ULite_e3_pw_Conv_output_0_weights                 8192/32768     weights/weights           const float             
176    _conv1_Relu_output_0_output                        3402/13608     activations/**default**   float                   
177    _conv1_conv_Conv_output_0_bias                     42/168         weights/weights           const float             
178    _conv1_conv_Conv_output_0_output                   3402/13608     activations/**default**   float                   
179    _conv1_conv_Conv_output_0_weights                  2268/9072      weights/weights           const float             
180    _conv2_Relu_output_0_output                        1024/4096      activations/**default**   float                   
181    _conv2_conv_Conv_output_0_bias                     16/64          weights/weights           const float             
182    _conv2_conv_Conv_output_0_output                   1024/4096      activations/**default**   float                   
183    _conv2_conv_Conv_output_0_weights                  10752/43008    weights/weights           const float             
184    _conv3_Relu_output_0_output                        2592/10368     activations/**default**   float                   
185    _conv3_conv_Conv_output_0_bias                     32/128         weights/weights           const float             
186    _conv3_conv_Conv_output_0_output                   2592/10368     activations/**default**   float                   
187    _conv3_conv_Conv_output_0_weights                  8192/32768     weights/weights           const float             
188    _conv4_Relu_output_0_output                        10368/41472    activations/**default**   float                   
189    _conv4_conv_Conv_output_0_bias                     128/512        weights/weights           const float             
190    _conv4_conv_Conv_output_0_output                   10368/41472    activations/**default**   float                   
191    _conv4_conv_Conv_output_0_weights                  85248/340992   weights/weights           const float             
192    _policy_head_Flatten_output_0_to_chlast_output     162/648        activations/**default**   float                   
193    _policy_head_conv_Relu_output_0_output             162/648        activations/**default**   float                   
194    _policy_head_conv_conv_Conv_output_0_bias          2/8            weights/weights           const float             
195    _policy_head_conv_conv_Conv_output_0_output        162/648        activations/**default**   float                   
196    _policy_head_conv_conv_Conv_output_0_weights       256/1024       weights/weights           const float             
197    _policy_head_fc_Gemm_output_0_bias                 81/324         weights/weights           const float             
198    _policy_head_fc_Gemm_output_0_output               81/324         activations/**default**   float                   
199    _policy_head_fc_Gemm_output_0_weights              13122/52488    weights/weights           const float             
200    _residues_residues_0_Add_output_0_output           3402/13608     activations/**default**   float                   
201    _residues_residues_0_Relu_1_output_0_output        3402/13608     activations/**default**   float                   
202    _residues_residues_0_Relu_output_0_output          3402/13608     activations/**default**   float                   
203    _residues_residues_0_conv1_Conv_output_0_bias      42/168         weights/weights           const float             
204    _residues_residues_0_conv1_Conv_output_0_output    3402/13608     activations/**default**   float                   
205    _residues_residues_0_conv1_Conv_output_0_weights   15876/63504    weights/weights           const float             
206    _residues_residues_0_conv2_Conv_output_0_bias      42/168         weights/weights           const float             
207    _residues_residues_0_conv2_Conv_output_0_output    3402/13608     activations/**default**   float                   
208    _residues_residues_0_conv2_Conv_output_0_weights   15876/63504    weights/weights           const float             
209    _residues_residues_1_Add_output_0_output           3402/13608     activations/**default**   float                   
210    _residues_residues_1_Relu_1_output_0_output        3402/13608     activations/**default**   float                   
211    _residues_residues_1_Relu_output_0_output          3402/13608     activations/**default**   float                   
212    _residues_residues_1_conv1_Conv_output_0_bias      42/168         weights/weights           const float             
213    _residues_residues_1_conv1_Conv_output_0_output    3402/13608     activations/**default**   float                   
214    _residues_residues_1_conv1_Conv_output_0_weights   15876/63504    weights/weights           const float             
215    _residues_residues_1_conv2_Conv_output_0_bias      42/168         weights/weights           const float             
216    _residues_residues_1_conv2_Conv_output_0_output    3402/13608     activations/**default**   float                   
217    _residues_residues_1_conv2_Conv_output_0_weights   15876/63504    weights/weights           const float             
218    _residues_residues_2_Add_output_0_output           3402/13608     activations/**default**   float                   
219    _residues_residues_2_Relu_1_output_0_output        3402/13608     activations/**default**   float                   
220    _residues_residues_2_Relu_output_0_output          3402/13608     activations/**default**   float                   
221    _residues_residues_2_conv1_Conv_output_0_bias      42/168         weights/weights           const float             
222    _residues_residues_2_conv1_Conv_output_0_output    3402/13608     activations/**default**   float                   
223    _residues_residues_2_conv1_Conv_output_0_weights   15876/63504    weights/weights           const float             
224    _residues_residues_2_conv2_Conv_output_0_bias      42/168         weights/weights           const float             
225    _residues_residues_2_conv2_Conv_output_0_output    3402/13608     activations/**default**   float                   
226    _residues_residues_2_conv2_Conv_output_0_weights   15876/63504    weights/weights           const float             
227    _residues_residues_3_Add_output_0_output           3402/13608     activations/**default**   float                   
228    _residues_residues_3_Relu_1_output_0_output        3402/13608     activations/**default**   float                   
229    _residues_residues_3_Relu_output_0_output          3402/13608     activations/**default**   float                   
230    _residues_residues_3_conv1_Conv_output_0_bias      42/168         weights/weights           const float             
231    _residues_residues_3_conv1_Conv_output_0_output    3402/13608     activations/**default**   float                   
232    _residues_residues_3_conv1_Conv_output_0_weights   15876/63504    weights/weights           const float             
233    _residues_residues_3_conv2_Conv_output_0_bias      42/168         weights/weights           const float             
234    _residues_residues_3_conv2_Conv_output_0_output    3402/13608     activations/**default**   float                   
235    _residues_residues_3_conv2_Conv_output_0_weights   15876/63504    weights/weights           const float             
236    _value_head_Flatten_output_0_to_chlast_output      81/324         activations/**default**   float                   
237    _value_head_conv_Relu_output_0_output              81/324         activations/**default**   float                   
238    _value_head_conv_conv_Conv_output_0_bias           1/4            weights/weights           const float             
239    _value_head_conv_conv_Conv_output_0_output         81/324         activations/**default**   float                   
240    _value_head_conv_conv_Conv_output_0_weights        128/512        weights/weights           const float             
241    _value_head_fc_fc_0_Gemm_output_0_bias             128/512        weights/weights           const float             
242    _value_head_fc_fc_0_Gemm_output_0_output           128/512        activations/**default**   float                   
243    _value_head_fc_fc_0_Gemm_output_0_weights          10368/41472    weights/weights           const float             
244    _value_head_fc_fc_1_Relu_output_0_output           128/512        activations/**default**   float                   
245    _value_head_fc_fc_2_Gemm_output_0_bias             1/4            weights/weights           const float             
246    _value_head_fc_fc_2_Gemm_output_0_output           1/4            activations/**default**   float                   
247    _value_head_fc_fc_2_Gemm_output_0_weights          128/512        weights/weights           const float             
248    input_Transpose_output                             486/1944       activations/**default**   float                   
249    input_output                                       486/1944       activations/**default**   float         /input    
250    node_384_output                                    1/4            activations/**default**   float         /output   
251    output_output                                      81/324         activations/**default**   float         /output   
252    output_softmax_output                              81/324         activations/**default**   float                   
------ -------------------------------------------------- -------------- ------------------------- ------------- --------- 

C-Layers (135)
------ ------------------------------------------ ----- --------------- --------- -------- ----------------------------------------------------- ----------------------- 
c_id   name (*_layer)                             id    layer_type      macc      rom      tensors                                               shape (array id)        
------ ------------------------------------------ ----- --------------- --------- -------- ----------------------------------------------------- ----------------------- 
0      input_Transpose                            2     Transpose       243       0        I: input_output                                       f32(1x6x9x9) (249)      
                                                                                           O: input_Transpose_output                             f32(1x9x9x6) (248)      
------ ------------------------------------------ ----- --------------- --------- -------- ----------------------------------------------------- ----------------------- 
1      _conv1_conv_Conv_output_0                  1     Conv2D          183750    9240     I: input_Transpose_output                             f32(1x9x9x6) (248)      
                                                                                           W: _conv1_conv_Conv_output_0_weights                  f32(42x3x3x6) (179)     
                                                                                           W: _conv1_conv_Conv_output_0_bias                     f32(42) (177)           
                                                                                           O: _conv1_conv_Conv_output_0_output                   f32(1x9x9x42) (178)     
------ ------------------------------------------ ----- --------------- --------- -------- ----------------------------------------------------- ----------------------- 
2      _conv1_Relu_output_0                       2     Nonlinearity    3402      0        I: _conv1_conv_Conv_output_0_output                   f32(1x9x9x42) (178)     
                                                                                           O: _conv1_Relu_output_0_output                        f32(1x9x9x42) (176)     
------ ------------------------------------------ ----- --------------- --------- -------- ----------------------------------------------------- ----------------------- 
3      _residues_residues_0_conv1_Conv_output_0   5     Conv2D          1285998   63672    I: _conv1_Relu_output_0_output                        f32(1x9x9x42) (176)     
                                                                                           W: _residues_residues_0_conv1_Conv_output_0_weights   f32(42x3x3x42) (205)    
                                                                                           W: _residues_residues_0_conv1_Conv_output_0_bias      f32(42) (203)           
                                                                                           O: _residues_residues_0_conv1_Conv_output_0_output    f32(1x9x9x42) (204)     
------ ------------------------------------------ ----- --------------- --------- -------- ----------------------------------------------------- ----------------------- 
4      _residues_residues_0_Relu_output_0         6     Nonlinearity    3402      0        I: _residues_residues_0_conv1_Conv_output_0_output    f32(1x9x9x42) (204)     
                                                                                           O: _residues_residues_0_Relu_output_0_output          f32(1x9x9x42) (202)     
------ ------------------------------------------ ----- --------------- --------- -------- ----------------------------------------------------- ----------------------- 
5      _residues_residues_0_conv2_Conv_output_0   7     Conv2D          1285998   63672    I: _residues_residues_0_Relu_output_0_output          f32(1x9x9x42) (202)     
                                                                                           W: _residues_residues_0_conv2_Conv_output_0_weights   f32(42x3x3x42) (208)    
                                                                                           W: _residues_residues_0_conv2_Conv_output_0_bias      f32(42) (206)           
                                                                                           O: _residues_residues_0_conv2_Conv_output_0_output    f32(1x9x9x42) (207)     
------ ------------------------------------------ ----- --------------- --------- -------- ----------------------------------------------------- ----------------------- 
6      _residues_residues_0_Add_output_0          8     Eltwise/add     3402      0        I: _residues_residues_0_conv2_Conv_output_0_output    f32(1x9x9x42) (207)     
                                                                                           I: _conv1_Relu_output_0_output                        f32(1x9x9x42) (207)     
                                                                                           O: _residues_residues_0_Add_output_0_output           f32(1x9x9x42) (200)     
------ ------------------------------------------ ----- --------------- --------- -------- ----------------------------------------------------- ----------------------- 
7      _residues_residues_0_Relu_1_output_0       9     Nonlinearity    3402      0        I: _residues_residues_0_Add_output_0_output           f32(1x9x9x42) (200)     
                                                                                           O: _residues_residues_0_Relu_1_output_0_output        f32(1x9x9x42) (201)     
------ ------------------------------------------ ----- --------------- --------- -------- ----------------------------------------------------- ----------------------- 
8      _residues_residues_1_conv1_Conv_output_0   10    Conv2D          1285998   63672    I: _residues_residues_0_Relu_1_output_0_output        f32(1x9x9x42) (201)     
                                                                                           W: _residues_residues_1_conv1_Conv_output_0_weights   f32(42x3x3x42) (214)    
                                                                                           W: _residues_residues_1_conv1_Conv_output_0_bias      f32(42) (212)           
                                                                                           O: _residues_residues_1_conv1_Conv_output_0_output    f32(1x9x9x42) (213)     
------ ------------------------------------------ ----- --------------- --------- -------- ----------------------------------------------------- ----------------------- 
9      _residues_residues_1_Relu_output_0         11    Nonlinearity    3402      0        I: _residues_residues_1_conv1_Conv_output_0_output    f32(1x9x9x42) (213)     
                                                                                           O: _residues_residues_1_Relu_output_0_output          f32(1x9x9x42) (211)     
------ ------------------------------------------ ----- --------------- --------- -------- ----------------------------------------------------- ----------------------- 
10     _residues_residues_1_conv2_Conv_output_0   12    Conv2D          1285998   63672    I: _residues_residues_1_Relu_output_0_output          f32(1x9x9x42) (211)     
                                                                                           W: _residues_residues_1_conv2_Conv_output_0_weights   f32(42x3x3x42) (217)    
                                                                                           W: _residues_residues_1_conv2_Conv_output_0_bias      f32(42) (215)           
                                                                                           O: _residues_residues_1_conv2_Conv_output_0_output    f32(1x9x9x42) (216)     
------ ------------------------------------------ ----- --------------- --------- -------- ----------------------------------------------------- ----------------------- 
11     _residues_residues_1_Add_output_0          13    Eltwise/add     3402      0        I: _residues_residues_1_conv2_Conv_output_0_output    f32(1x9x9x42) (216)     
                                                                                           I: _residues_residues_0_Relu_1_output_0_output        f32(1x9x9x42) (216)     
                                                                                           O: _residues_residues_1_Add_output_0_output           f32(1x9x9x42) (209)     
------ ------------------------------------------ ----- --------------- --------- -------- ----------------------------------------------------- ----------------------- 
12     _residues_residues_1_Relu_1_output_0       14    Nonlinearity    3402      0        I: _residues_residues_1_Add_output_0_output           f32(1x9x9x42) (209)     
                                                                                           O: _residues_residues_1_Relu_1_output_0_output        f32(1x9x9x42) (210)     
------ ------------------------------------------ ----- --------------- --------- -------- ----------------------------------------------------- ----------------------- 
13     _residues_residues_2_conv1_Conv_output_0   15    Conv2D          1285998   63672    I: _residues_residues_1_Relu_1_output_0_output        f32(1x9x9x42) (210)     
                                                                                           W: _residues_residues_2_conv1_Conv_output_0_weights   f32(42x3x3x42) (223)    
                                                                                           W: _residues_residues_2_conv1_Conv_output_0_bias      f32(42) (221)           
                                                                                           O: _residues_residues_2_conv1_Conv_output_0_output    f32(1x9x9x42) (222)     
------ ------------------------------------------ ----- --------------- --------- -------- ----------------------------------------------------- ----------------------- 
14     _residues_residues_2_Relu_output_0         16    Nonlinearity    3402      0        I: _residues_residues_2_conv1_Conv_output_0_output    f32(1x9x9x42) (222)     
                                                                                           O: _residues_residues_2_Relu_output_0_output          f32(1x9x9x42) (220)     
------ ------------------------------------------ ----- --------------- --------- -------- ----------------------------------------------------- ----------------------- 
15     _residues_residues_2_conv2_Conv_output_0   17    Conv2D          1285998   63672    I: _residues_residues_2_Relu_output_0_output          f32(1x9x9x42) (220)     
                                                                                           W: _residues_residues_2_conv2_Conv_output_0_weights   f32(42x3x3x42) (226)    
                                                                                           W: _residues_residues_2_conv2_Conv_output_0_bias      f32(42) (224)           
                                                                                           O: _residues_residues_2_conv2_Conv_output_0_output    f32(1x9x9x42) (225)     
------ ------------------------------------------ ----- --------------- --------- -------- ----------------------------------------------------- ----------------------- 
16     _residues_residues_2_Add_output_0          18    Eltwise/add     3402      0        I: _residues_residues_2_conv2_Conv_output_0_output    f32(1x9x9x42) (225)     
                                                                                           I: _residues_residues_1_Relu_1_output_0_output        f32(1x9x9x42) (225)     
                                                                                           O: _residues_residues_2_Add_output_0_output           f32(1x9x9x42) (218)     
------ ------------------------------------------ ----- --------------- --------- -------- ----------------------------------------------------- ----------------------- 
17     _residues_residues_2_Relu_1_output_0       19    Nonlinearity    3402      0        I: _residues_residues_2_Add_output_0_output           f32(1x9x9x42) (218)     
                                                                                           O: _residues_residues_2_Relu_1_output_0_output        f32(1x9x9x42) (219)     
------ ------------------------------------------ ----- --------------- --------- -------- ----------------------------------------------------- ----------------------- 
18     _residues_residues_3_conv1_Conv_output_0   20    Conv2D          1285998   63672    I: _residues_residues_2_Relu_1_output_0_output        f32(1x9x9x42) (219)     
                                                                                           W: _residues_residues_3_conv1_Conv_output_0_weights   f32(42x3x3x42) (232)    
                                                                                           W: _residues_residues_3_conv1_Conv_output_0_bias      f32(42) (230)           
                                                                                           O: _residues_residues_3_conv1_Conv_output_0_output    f32(1x9x9x42) (231)     
------ ------------------------------------------ ----- --------------- --------- -------- ----------------------------------------------------- ----------------------- 
19     _residues_residues_3_Relu_output_0         21    Nonlinearity    3402      0        I: _residues_residues_3_conv1_Conv_output_0_output    f32(1x9x9x42) (231)     
                                                                                           O: _residues_residues_3_Relu_output_0_output          f32(1x9x9x42) (229)     
------ ------------------------------------------ ----- --------------- --------- -------- ----------------------------------------------------- ----------------------- 
20     _residues_residues_3_conv2_Conv_output_0   22    Conv2D          1285998   63672    I: _residues_residues_3_Relu_output_0_output          f32(1x9x9x42) (229)     
                                                                                           W: _residues_residues_3_conv2_Conv_output_0_weights   f32(42x3x3x42) (235)    
                                                                                           W: _residues_residues_3_conv2_Conv_output_0_bias      f32(42) (233)           
                                                                                           O: _residues_residues_3_conv2_Conv_output_0_output    f32(1x9x9x42) (234)     
------ ------------------------------------------ ----- --------------- --------- -------- ----------------------------------------------------- ----------------------- 
21     _residues_residues_3_Add_output_0          23    Eltwise/add     3402      0        I: _residues_residues_3_conv2_Conv_output_0_output    f32(1x9x9x42) (234)     
                                                                                           I: _residues_residues_2_Relu_1_output_0_output        f32(1x9x9x42) (234)     
                                                                                           O: _residues_residues_3_Add_output_0_output           f32(1x9x9x42) (227)     
------ ------------------------------------------ ----- --------------- --------- -------- ----------------------------------------------------- ----------------------- 
22     _residues_residues_3_Relu_1_output_0       24    Nonlinearity    3402      0        I: _residues_residues_3_Add_output_0_output           f32(1x9x9x42) (227)     
                                                                                           O: _residues_residues_3_Relu_1_output_0_output        f32(1x9x9x42) (228)     
------ ------------------------------------------ ----- --------------- --------- -------- ----------------------------------------------------- ----------------------- 
23     _conv2_conv_Conv_output_0                  3     Conv2D          688144    43072    I: _conv1_Relu_output_0_output                        f32(1x9x9x42) (176)     
                                                                                           W: _conv2_conv_Conv_output_0_weights                  f32(16x4x4x42) (183)    
                                                                                           W: _conv2_conv_Conv_output_0_bias                     f32(16) (181)           
                                                                                           O: _conv2_conv_Conv_output_0_output                   f32(1x8x8x16) (182)     
------ ------------------------------------------ ----- --------------- --------- -------- ----------------------------------------------------- ----------------------- 
24     _conv2_Relu_output_0                       4     Nonlinearity    1024      0        I: _conv2_conv_Conv_output_0_output                   f32(1x8x8x16) (182)     
                                                                                           O: _conv2_Relu_output_0_output                        f32(1x8x8x16) (180)     
------ ------------------------------------------ ----- --------------- --------- -------- ----------------------------------------------------- ----------------------- 
25     _ULite_e1_dw_dw_w_Conv_output_0            27    Conv2D          7184      512      I: _conv2_Relu_output_0_output                        f32(1x8x8x16) (180)     
                                                                                           W: _ULite_e1_dw_dw_w_Conv_output_0_weights            f32(16x1x7x1) (126)     
                                                                                           W: _ULite_e1_dw_dw_w_Conv_output_0_bias               f32(16) (124)           
                                                                                           O: _ULite_e1_dw_dw_w_Conv_output_0_output             f32(1x8x8x16) (125)     
------ ------------------------------------------ ----- --------------- --------- -------- ----------------------------------------------------- ----------------------- 
26     _ULite_e1_dw_dw_h_Conv_output_0            25    Conv2D          7184      512      I: _conv2_Relu_output_0_output                        f32(1x8x8x16) (180)     
                                                                                           W: _ULite_e1_dw_dw_h_Conv_output_0_weights            f32(16x7x1x1) (123)     
                                                                                           W: _ULite_e1_dw_dw_h_Conv_output_0_bias               f32(16) (121)           
                                                                                           O: _ULite_e1_dw_dw_h_Conv_output_0_output             f32(1x8x8x16) (122)     
------ ------------------------------------------ ----- --------------- --------- -------- ----------------------------------------------------- ----------------------- 
27     _ULite_e1_dw_Add_output_0                  26    Eltwise/add     1024      0        I: _conv2_Relu_output_0_output                        f32(1x8x8x16) (180)     
                                                                                           I: _ULite_e1_dw_dw_h_Conv_output_0_output             f32(1x8x8x16) (180)     
                                                                                           O: _ULite_e1_dw_Add_output_0_output                   f32(1x8x8x16) (120)     
------ ------------------------------------------ ----- --------------- --------- -------- ----------------------------------------------------- ----------------------- 
28     _ULite_e1_dw_Add_1_output_0                28    Eltwise/add     1024      0        I: _ULite_e1_dw_Add_output_0_output                   f32(1x8x8x16) (120)     
                                                                                           I: _ULite_e1_dw_dw_w_Conv_output_0_output             f32(1x8x8x16) (120)     
                                                                                           O: _ULite_e1_dw_Add_1_output_0_output                 f32(1x8x8x16) (119)     
------ ------------------------------------------ ----- --------------- --------- -------- ----------------------------------------------------- ----------------------- 
29     _ULite_e1_bn_BatchNormalization_output_0   29    ScaleBias       2048      128      I: _ULite_e1_dw_Add_1_output_0_output                 f32(1x8x8x16) (119)     
                                                                                           W: _ULite_e1_bn_BatchNormalization_output_0_scale     f32(16) (118)           
                                                                                           W: _ULite_e1_bn_BatchNormalization_output_0_bias      f32(16) (116)           
                                                                                           O: _ULite_e1_bn_BatchNormalization_output_0_output    f32(1x8x8x16) (117)     
------ ------------------------------------------ ----- --------------- --------- -------- ----------------------------------------------------- ----------------------- 
30     _ULite_e1_pw_Conv_output_0                 31    Conv2D          34848     2176     I: _ULite_e1_bn_BatchNormalization_output_0_output    f32(1x8x8x16) (117)     
                                                                                           S: _ULite_e1_pw_Conv_output_0_scratch0                                        
                                                                                           W: _ULite_e1_pw_Conv_output_0_weights                 f32(32x1x1x16) (130)    
                                                                                           W: _ULite_e1_pw_Conv_output_0_bias                    f32(32) (127)           
                                                                                           O: _ULite_e1_pw_Conv_output_0_output                  f32(1x4x4x32) (128)     
------ ------------------------------------------ ----- --------------- --------- -------- ----------------------------------------------------- ----------------------- 
31     _ULite_e1_act_Div_output_0                 32    Eltwise/div     2560      0        I: _ULite_e1_pw_Conv_output_0_output                  f32(1x4x4x32) (128)     
                                                                                           O: _ULite_e1_act_Div_output_0_output                  f32(1x4x4x32) (110)     
------ ------------------------------------------ ----- --------------- --------- -------- ----------------------------------------------------- ----------------------- 
32     _ULite_e1_act_Erf_output_0                 33    Nonlinearity    1024      0        I: _ULite_e1_act_Div_output_0_output                  f32(1x4x4x32) (110)     
                                                                                           O: _ULite_e1_act_Erf_output_0_output                  f32(1x4x4x32) (111)     
------ ------------------------------------------ ----- --------------- --------- -------- ----------------------------------------------------- ----------------------- 
33     _ULite_e1_act_Add_output_0                 34    ScaleBias       1024      256      I: _ULite_e1_act_Erf_output_0_output                  f32(1x4x4x32) (111)     
                                                                                           W: _ULite_e1_act_Add_output_0_scale                   f32(32) (108)           
                                                                                           W: _ULite_e1_act_Add_output_0_bias                    f32(32) (106)           
                                                                                           O: _ULite_e1_act_Add_output_0_output                  f32(1x4x4x32) (107)     
------ ------------------------------------------ ----- --------------- --------- -------- ----------------------------------------------------- ----------------------- 
34     _ULite_e1_act_Mul_output_0                 35    Eltwise/mul     512       0        I: _ULite_e1_pw_Conv_output_0_output                  f32(1x4x4x32) (128)     
                                                                                           I: _ULite_e1_act_Add_output_0_output                  f32(1x4x4x32) (128)     
                                                                                           O: _ULite_e1_act_Mul_output_0_output                  f32(1x4x4x32) (115)     
------ ------------------------------------------ ----- --------------- --------- -------- ----------------------------------------------------- ----------------------- 
35     _ULite_e1_act_Mul_1_output_0               36    ScaleBias       1024      256      I: _ULite_e1_act_Mul_output_0_output                  f32(1x4x4x32) (115)     
                                                                                           W: _ULite_e1_act_Mul_1_output_0_scale                 f32(32) (114)           
                                                                                           W: _ULite_e1_act_Mul_1_output_0_bias                  f32(32) (112)           
                                                                                           O: _ULite_e1_act_Mul_1_output_0_output                f32(1x4x4x32) (113)     
------ ------------------------------------------ ----- --------------- --------- -------- ----------------------------------------------------- ----------------------- 
36     _ULite_e2_dw_dw_w_Conv_output_0            39    Conv2D          3616      1024     I: _ULite_e1_act_Mul_1_output_0_output                f32(1x4x4x32) (113)     
                                                                                           W: _ULite_e2_dw_dw_w_Conv_output_0_weights            f32(32x1x7x1) (150)     
                                                                                           W: _ULite_e2_dw_dw_w_Conv_output_0_bias               f32(32) (148)           
                                                                                           O: _ULite_e2_dw_dw_w_Conv_output_0_output             f32(1x4x4x32) (149)     
------ ------------------------------------------ ----- --------------- --------- -------- ----------------------------------------------------- ----------------------- 
37     _ULite_e2_dw_dw_h_Conv_output_0            37    Conv2D          3616      1024     I: _ULite_e1_act_Mul_1_output_0_output                f32(1x4x4x32) (113)     
                                                                                           W: _ULite_e2_dw_dw_h_Conv_output_0_weights            f32(32x7x1x1) (147)     
…
                                                                                           O: _ULite_d1_pw_Conv_output_0_output                  f32(1x8x8x16) (61)      
------ ------------------------------------------ ----- --------------- --------- -------- ----------------------------------------------------- ----------------------- 
107    _ULite_d1_dw_dw_w_Conv_output_0            113   Conv2D          7184      512      I: _ULite_d1_pw_Conv_output_0_output                  f32(1x8x8x16) (61)      
                                                                                           W: _ULite_d1_dw_dw_w_Conv_output_0_weights            f32(16x1x7x1) (56)      
                                                                                           W: _ULite_d1_dw_dw_w_Conv_output_0_bias               f32(16) (54)            
                                                                                           O: _ULite_d1_dw_dw_w_Conv_output_0_output             f32(1x8x8x16) (55)      
------ ------------------------------------------ ----- --------------- --------- -------- ----------------------------------------------------- ----------------------- 
108    _ULite_d1_dw_dw_h_Conv_output_0            111   Conv2D          7184      512      I: _ULite_d1_pw_Conv_output_0_output                  f32(1x8x8x16) (61)      
                                                                                           W: _ULite_d1_dw_dw_h_Conv_output_0_weights            f32(16x7x1x1) (53)      
                                                                                           W: _ULite_d1_dw_dw_h_Conv_output_0_bias               f32(16) (51)            
                                                                                           O: _ULite_d1_dw_dw_h_Conv_output_0_output             f32(1x8x8x16) (52)      
------ ------------------------------------------ ----- --------------- --------- -------- ----------------------------------------------------- ----------------------- 
109    _ULite_d1_dw_Add_output_0                  112   Eltwise/add     1024      0        I: _ULite_d1_pw_Conv_output_0_output                  f32(1x8x8x16) (61)      
                                                                                           I: _ULite_d1_dw_dw_h_Conv_output_0_output             f32(1x8x8x16) (61)      
                                                                                           O: _ULite_d1_dw_Add_output_0_output                   f32(1x8x8x16) (50)      
------ ------------------------------------------ ----- --------------- --------- -------- ----------------------------------------------------- ----------------------- 
110    _ULite_d1_dw_Add_1_output_0                114   Eltwise/add     1024      0        I: _ULite_d1_dw_Add_output_0_output                   f32(1x8x8x16) (50)      
                                                                                           I: _ULite_d1_dw_dw_w_Conv_output_0_output             f32(1x8x8x16) (50)      
                                                                                           O: _ULite_d1_dw_Add_1_output_0_output                 f32(1x8x8x16) (49)      
------ ------------------------------------------ ----- --------------- --------- -------- ----------------------------------------------------- ----------------------- 
111    _ULite_d1_pw2_Conv_output_0                115   Conv2D          16400     1088     I: _ULite_d1_dw_Add_1_output_0_output                 f32(1x8x8x16) (49)      
                                                                                           W: _ULite_d1_pw2_Conv_output_0_weights                f32(16x1x1x16) (59)     
                                                                                           W: _ULite_d1_pw2_Conv_output_0_bias                   f32(16) (57)            
                                                                                           O: _ULite_d1_pw2_Conv_output_0_output                 f32(1x8x8x16) (58)      
------ ------------------------------------------ ----- --------------- --------- -------- ----------------------------------------------------- ----------------------- 
112    _ULite_d1_act_Div_output_0                 116   Eltwise/div     5120      0        I: _ULite_d1_pw2_Conv_output_0_output                 f32(1x8x8x16) (58)      
                                                                                           O: _ULite_d1_act_Div_output_0_output                  f32(1x8x8x16) (43)      
------ ------------------------------------------ ----- --------------- --------- -------- ----------------------------------------------------- ----------------------- 
113    _ULite_d1_act_Erf_output_0                 117   Nonlinearity    2048      0        I: _ULite_d1_act_Div_output_0_output                  f32(1x8x8x16) (43)      
                                                                                           O: _ULite_d1_act_Erf_output_0_output                  f32(1x8x8x16) (44)      
------ ------------------------------------------ ----- --------------- --------- -------- ----------------------------------------------------- ----------------------- 
114    _ULite_d1_act_Add_output_0                 118   ScaleBias       2048      128      I: _ULite_d1_act_Erf_output_0_output                  f32(1x8x8x16) (44)      
                                                                                           W: _ULite_d1_act_Add_output_0_scale                   f32(16) (42)            
                                                                                           W: _ULite_d1_act_Add_output_0_bias                    f32(16) (40)            
                                                                                           O: _ULite_d1_act_Add_output_0_output                  f32(1x8x8x16) (41)      
------ ------------------------------------------ ----- --------------- --------- -------- ----------------------------------------------------- ----------------------- 
115    _ULite_d1_act_Mul_output_0                 119   Eltwise/mul     1024      0        I: _ULite_d1_pw2_Conv_output_0_output                 f32(1x8x8x16) (58)      
                                                                                           I: _ULite_d1_act_Add_output_0_output                  f32(1x8x8x16) (58)      
                                                                                           O: _ULite_d1_act_Mul_output_0_output                  f32(1x8x8x16) (48)      
------ ------------------------------------------ ----- --------------- --------- -------- ----------------------------------------------------- ----------------------- 
116    _ULite_d1_act_Mul_1_output_0               120   ScaleBias       2048      128      I: _ULite_d1_act_Mul_output_0_output                  f32(1x8x8x16) (48)      
                                                                                           W: _ULite_d1_act_Mul_1_output_0_scale                 f32(16) (47)            
                                                                                           W: _ULite_d1_act_Mul_1_output_0_bias                  f32(16) (45)            
                                                                                           O: _ULite_d1_act_Mul_1_output_0_output                f32(1x8x8x16) (46)      
------ ------------------------------------------ ----- --------------- --------- -------- ----------------------------------------------------- ----------------------- 
117    _conv3_conv_Conv_output_0                  121   Conv2D          663584    32896    I: _ULite_d1_act_Mul_1_output_0_output                f32(1x8x8x16) (46)      
                                                                                           W: _conv3_conv_Conv_output_0_weights                  f32(32x4x4x16) (187)    
                                                                                           W: _conv3_conv_Conv_output_0_bias                     f32(32) (185)           
                                                                                           O: _conv3_conv_Conv_output_0_output                   f32(1x9x9x32) (186)     
------ ------------------------------------------ ----- --------------- --------- -------- ----------------------------------------------------- ----------------------- 
118    _conv3_Relu_output_0                       122   Nonlinearity    2592      0        I: _conv3_conv_Conv_output_0_output                   f32(1x9x9x32) (186)     
                                                                                           O: _conv3_Relu_output_0_output                        f32(1x9x9x32) (184)     
------ ------------------------------------------ ----- --------------- --------- -------- ----------------------------------------------------- ----------------------- 
119    _Concat_output_0                           123   Concat          0         0        I: _residues_residues_3_Relu_1_output_0_output        f32(1x9x9x42) (228)     
                                                                                           I: _conv3_Relu_output_0_output                        f32(1x9x9x42) (228)     
                                                                                           O: _Concat_output_0_output                            f32(1x9x9x74) (0)       
------ ------------------------------------------ ----- --------------- --------- -------- ----------------------------------------------------- ----------------------- 
120    _conv4_conv_Conv_output_0                  124   Conv2D          6905216   341504   I: _Concat_output_0_output                            f32(1x9x9x74) (0)       
                                                                                           W: _conv4_conv_Conv_output_0_weights                  f32(128x3x3x74) (191)   
                                                                                           W: _conv4_conv_Conv_output_0_bias                     f32(128) (189)          
                                                                                           O: _conv4_conv_Conv_output_0_output                   f32(1x9x9x128) (190)    
------ ------------------------------------------ ----- --------------- --------- -------- ----------------------------------------------------- ----------------------- 
121    _conv4_Relu_output_0                       125   Nonlinearity    10368     0        I: _conv4_conv_Conv_output_0_output                   f32(1x9x9x128) (190)    
                                                                                           O: _conv4_Relu_output_0_output                        f32(1x9x9x128) (188)    
------ ------------------------------------------ ----- --------------- --------- -------- ----------------------------------------------------- ----------------------- 
122    _value_head_conv_conv_Conv_output_0        131   Conv2D          10369     516      I: _conv4_Relu_output_0_output                        f32(1x9x9x128) (188)    
                                                                                           W: _value_head_conv_conv_Conv_output_0_weights        f32(1x1x1x128) (240)    
                                                                                           W: _value_head_conv_conv_Conv_output_0_bias           f32(1) (238)            
                                                                                           O: _value_head_conv_conv_Conv_output_0_output         f32(1x9x9x1) (239)      
------ ------------------------------------------ ----- --------------- --------- -------- ----------------------------------------------------- ----------------------- 
123    _value_head_conv_Relu_output_0             132   Nonlinearity    81        0        I: _value_head_conv_conv_Conv_output_0_output         f32(1x9x9x1) (239)      
                                                                                           O: _value_head_conv_Relu_output_0_output              f32(1x9x9x1) (237)      
------ ------------------------------------------ ----- --------------- --------- -------- ----------------------------------------------------- ----------------------- 
124    _value_head_Flatten_output_0_to_chlast     133   Transpose       40        0        I: _value_head_conv_Relu_output_0_output              f32(1x9x9x1) (237)      
                                                                                           O: _value_head_Flatten_output_0_to_chlast_output      f32(1x1x9x9) (236)      
------ ------------------------------------------ ----- --------------- --------- -------- ----------------------------------------------------- ----------------------- 
125    _value_head_fc_fc_0_Gemm_output_0          134   Dense           10496     41984    I: _value_head_Flatten_output_0_to_chlast_output      f32(1x1x9x9) (236)      
                                                                                           W: _value_head_fc_fc_0_Gemm_output_0_weights          f32(128x81) (243)       
                                                                                           W: _value_head_fc_fc_0_Gemm_output_0_bias             f32(128) (241)          
                                                                                           O: _value_head_fc_fc_0_Gemm_output_0_output           f32(1x128) (242)        
------ ------------------------------------------ ----- --------------- --------- -------- ----------------------------------------------------- ----------------------- 
126    _value_head_fc_fc_1_Relu_output_0          135   Nonlinearity    128       0        I: _value_head_fc_fc_0_Gemm_output_0_output           f32(1x128) (242)        
                                                                                           O: _value_head_fc_fc_1_Relu_output_0_output           f32(1x128) (244)        
------ ------------------------------------------ ----- --------------- --------- -------- ----------------------------------------------------- ----------------------- 
127    _value_head_fc_fc_2_Gemm_output_0          136   Dense           129       516      I: _value_head_fc_fc_1_Relu_output_0_output           f32(1x128) (244)        
                                                                                           W: _value_head_fc_fc_2_Gemm_output_0_weights          f32(1x128) (247)        
                                                                                           W: _value_head_fc_fc_2_Gemm_output_0_bias             f32(1) (245)            
                                                                                           O: _value_head_fc_fc_2_Gemm_output_0_output           f32(1x1) (246)          
------ ------------------------------------------ ----- --------------- --------- -------- ----------------------------------------------------- ----------------------- 
128    node_384                                   137   Nonlinearity    10        0        I: _value_head_fc_fc_2_Gemm_output_0_output           f32(1x1) (246)          
                                                                                           O: node_384_output                                    f32(1x1) (250)          
------ ------------------------------------------ ----- --------------- --------- -------- ----------------------------------------------------- ----------------------- 
129    _policy_head_conv_conv_Conv_output_0       126   Conv2D          20738     1032     I: _conv4_Relu_output_0_output                        f32(1x9x9x128) (188)    
                                                                                           W: _policy_head_conv_conv_Conv_output_0_weights       f32(2x1x1x128) (196)    
                                                                                           W: _policy_head_conv_conv_Conv_output_0_bias          f32(2) (194)            
                                                                                           O: _policy_head_conv_conv_Conv_output_0_output        f32(1x9x9x2) (195)      
------ ------------------------------------------ ----- --------------- --------- -------- ----------------------------------------------------- ----------------------- 
130    _policy_head_conv_Relu_output_0            127   Nonlinearity    162       0        I: _policy_head_conv_conv_Conv_output_0_output        f32(1x9x9x2) (195)      
                                                                                           O: _policy_head_conv_Relu_output_0_output             f32(1x9x9x2) (193)      
------ ------------------------------------------ ----- --------------- --------- -------- ----------------------------------------------------- ----------------------- 
131    _policy_head_Flatten_output_0_to_chlast    128   Transpose       81        0        I: _policy_head_conv_Relu_output_0_output             f32(1x9x9x2) (193)      
                                                                                           O: _policy_head_Flatten_output_0_to_chlast_output     f32(1x2x9x9) (192)      
------ ------------------------------------------ ----- --------------- --------- -------- ----------------------------------------------------- ----------------------- 
132    _policy_head_fc_Gemm_output_0              129   Dense           13203     52812    I: _policy_head_Flatten_output_0_to_chlast_output     f32(1x2x9x9) (192)      
                                                                                           W: _policy_head_fc_Gemm_output_0_weights              f32(81x162) (199)       
                                                                                           W: _policy_head_fc_Gemm_output_0_bias                 f32(81) (197)           
                                                                                           O: _policy_head_fc_Gemm_output_0_output               f32(1x81) (198)         
------ ------------------------------------------ ----- --------------- --------- -------- ----------------------------------------------------- ----------------------- 
133    output_softmax                             130   Nonlinearity    1215      0        I: _policy_head_fc_Gemm_output_0_output               f32(1x81) (198)         
                                                                                           O: output_softmax_output                              f32(1x81) (252)         
------ ------------------------------------------ ----- --------------- --------- -------- ----------------------------------------------------- ----------------------- 
134    output                                     131   Nonlinearity    810       0        I: output_softmax_output                              f32(1x81) (252)         
                                                                                           O: output_output                                      f32(1x81) (251)         
------ ------------------------------------------ ----- --------------- --------- -------- ----------------------------------------------------- ----------------------- 



Number of operations per c-layer
------- ------ ------------------------------------------------------ ------------ -------------- 
c_id    m_id   name (type)                                                     #op           type 
------- ------ ------------------------------------------------------ ------------ -------------- 
0       2      input_Transpose (Transpose)                                     243   smul_f32_f32 
1       1      _conv1_conv_Conv_output_0 (Conv2D)                          183,750   smul_f32_f32 
2       2      _conv1_Relu_output_0 (Nonlinearity)                           3,402     op_f32_f32 
3       5      _residues_residues_0_conv1_Conv_output_0 (Conv2D)         1,285,998   smul_f32_f32 
4       6      _residues_residues_0_Relu_output_0 (Nonlinearity)             3,402     op_f32_f32 
5       7      _residues_residues_0_conv2_Conv_output_0 (Conv2D)         1,285,998   smul_f32_f32 
6       8      _residues_residues_0_Add_output_0 (Eltwise/add)               3,402     op_f32_f32 
7       9      _residues_residues_0_Relu_1_output_0 (Nonlinearity)           3,402     op_f32_f32 
8       10     _residues_residues_1_conv1_Conv_output_0 (Conv2D)         1,285,998   smul_f32_f32 
9       11     _residues_residues_1_Relu_output_0 (Nonlinearity)             3,402     op_f32_f32 
10      12     _residues_residues_1_conv2_Conv_output_0 (Conv2D)         1,285,998   smul_f32_f32 
11      13     _residues_residues_1_Add_output_0 (Eltwise/add)               3,402     op_f32_f32 
12      14     _residues_residues_1_Relu_1_output_0 (Nonlinearity)           3,402     op_f32_f32 
13      15     _residues_residues_2_conv1_Conv_output_0 (Conv2D)         1,285,998   smul_f32_f32 
14      16     _residues_residues_2_Relu_output_0 (Nonlinearity)             3,402     op_f32_f32 
15      17     _residues_residues_2_conv2_Conv_output_0 (Conv2D)         1,285,998   smul_f32_f32 
16      18     _residues_residues_2_Add_output_0 (Eltwise/add)               3,402     op_f32_f32 
17      19     _residues_residues_2_Relu_1_output_0 (Nonlinearity)           3,402     op_f32_f32 
18      20     _residues_residues_3_conv1_Conv_output_0 (Conv2D)         1,285,998   smul_f32_f32 
19      21     _residues_residues_3_Relu_output_0 (Nonlinearity)             3,402     op_f32_f32 
20      22     _residues_residues_3_conv2_Conv_output_0 (Conv2D)         1,285,998   smul_f32_f32 
21      23     _residues_residues_3_Add_output_0 (Eltwise/add)               3,402     op_f32_f32 
22      24     _residues_residues_3_Relu_1_output_0 (Nonlinearity)           3,402     op_f32_f32 
23      3      _conv2_conv_Conv_output_0 (Conv2D)                          688,144   smul_f32_f32 
24      4      _conv2_Relu_output_0 (Nonlinearity)                           1,024     op_f32_f32 
25      27     _ULite_e1_dw_dw_w_Conv_output_0 (Conv2D)                      7,184   smul_f32_f32 
26      25     _ULite_e1_dw_dw_h_Conv_output_0 (Conv2D)                      7,184   smul_f32_f32 
27      26     _ULite_e1_dw_Add_output_0 (Eltwise/add)                       1,024     op_f32_f32 
28      28     _ULite_e1_dw_Add_1_output_0 (Eltwise/add)                     1,024     op_f32_f32 
29      29     _ULite_e1_bn_BatchNormalization_output_0 (ScaleBias)          2,048   smul_f32_f32 
30      31     _ULite_e1_pw_Conv_output_0 (Conv2D)                          34,848   smul_f32_f32 
31      32     _ULite_e1_act_Div_output_0 (Eltwise/div)                      2,560     op_f32_f32 
32      33     _ULite_e1_act_Erf_output_0 (Nonlinearity)                     1,024     op_f32_f32 
33      34     _ULite_e1_act_Add_output_0 (ScaleBias)                        1,024   smul_f32_f32 
34      35     _ULite_e1_act_Mul_output_0 (Eltwise/mul)                        512     op_f32_f32 
35      36     _ULite_e1_act_Mul_1_output_0 (ScaleBias)                      1,024   smul_f32_f32 
36      39     _ULite_e2_dw_dw_w_Conv_output_0 (Conv2D)                      3,616   smul_f32_f32 
37      37     _ULite_e2_dw_dw_h_Conv_output_0 (Conv2D)                      3,616   smul_f32_f32 
38      38     _ULite_e2_dw_Add_output_0 (Eltwise/add)                         512     op_f32_f32 
39      40     _ULite_e2_dw_Add_1_output_0 (Eltwise/add)                       512     op_f32_f32 
40      41     _ULite_e2_bn_BatchNormalization_output_0 (ScaleBias)          1,024   smul_f32_f32 
41      43     _ULite_e2_pw_Conv_output_0 (Conv2D)                          33,856   smul_f32_f32 
42      44     _ULite_e2_act_Div_output_0 (Eltwise/div)                      1,280     op_f32_f32 
43      45     _ULite_e2_act_Erf_output_0 (Nonlinearity)                       512     op_f32_f32 
44      46     _ULite_e2_act_Add_output_0 (ScaleBias)                          512   smul_f32_f32 
45      47     _ULite_e2_act_Mul_output_0 (Eltwise/mul)                        256     op_f32_f32 
46      48     _ULite_e2_act_Mul_1_output_0 (ScaleBias)                        512   smul_f32_f32 
47      51     _ULite_e3_dw_dw_w_Conv_output_0 (Conv2D)                      1,856   smul_f32_f32 
48      49     _ULite_e3_dw_dw_h_Conv_output_0 (Conv2D)                      1,856   smul_f32_f32 
49      50     _ULite_e3_dw_Add_output_0 (Eltwise/add)                         256     op_f32_f32 
50      52     _ULite_e3_dw_Add_1_output_0 (Eltwise/add)                       256     op_f32_f32 
51      53     _ULite_e3_bn_BatchNormalization_output_0 (ScaleBias)            512   smul_f32_f32 
52      54     _ULite_e3_pw_Conv_output_0 (Conv2D)                          32,896   smul_f32_f32 
53      55     _ULite_e3_down_MaxPool_output_0 (Pool)                          512   smul_f32_f32 
54      56     _ULite_e3_act_Div_output_0 (Eltwise/div)                        640     op_f32_f32 
55      57     _ULite_e3_act_Erf_output_0 (Nonlinearity)                       256     op_f32_f32 
56      58     _ULite_e3_act_Add_output_0 (ScaleBias)                          256   smul_f32_f32 
57      59     _ULite_e3_act_Mul_output_0 (Eltwise/mul)                        128     op_f32_f32 
58      61     _ULite_b5_pw1_Conv_output_0 (Conv2D)                          4,128   smul_f32_f32 
59      72     _ULite_b5_dw3_dw_w_Conv_output_0 (Conv2D)                       128   smul_f32_f32 
60      70     _ULite_b5_dw3_dw_h_Conv_output_0 (Conv2D)                       128   smul_f32_f32 
61      71     _ULite_b5_dw3_Add_output_0 (Eltwise/add)                         32     op_f32_f32 
62      73     _ULite_b5_dw3_Add_1_output_0 (Eltwise/add)                       32     op_f32_f32 
63      68     _ULite_b5_dw2_dw_w_Conv_output_0 (Conv2D)                       128   smul_f32_f32 
64      66     _ULite_b5_dw2_dw_h_Conv_output_0 (Conv2D)                       128   smul_f32_f32 
65      67     _ULite_b5_dw2_Add_output_0 (Eltwise/add)                         32     op_f32_f32 
66      69     _ULite_b5_dw2_Add_1_output_0 (Eltwise/add)                       32     op_f32_f32 
67      64     _ULite_b5_dw1_dw_w_Conv_output_0 (Conv2D)                       128   smul_f32_f32 
68      62     _ULite_b5_dw1_dw_h_Conv_output_0 (Conv2D)                       128   smul_f32_f32 
69      63     _ULite_b5_dw1_Add_output_0 (Eltwise/add)                         32     op_f32_f32 
70      65     _ULite_b5_dw1_Add_1_output_0 (Eltwise/add)                       32     op_f32_f32 
71      74     _ULite_b5_Concat_output_0 (Concat)                                0   smul_f32_f32 
72      76     _ULite_b5_pw2_Conv_output_0 (Conv2D)                         16,512   smul_f32_f32 
73      77     _ULite_b5_act_Div_output_0 (Eltwise/div)                        640     op_f32_f32 
74      78     _ULite_b5_act_Erf_output_0 (Nonlinearity)                       256     op_f32_f32 
75      79     _ULite_b5_act_Add_output_0 (ScaleBias)                          256   smul_f32_f32 
76      80     _ULite_b5_act_Mul_output_0 (Eltwise/mul)                        128     op_f32_f32 
77      81     _ULite_b5_act_Mul_1_output_0 (ScaleBias)                        256   smul_f32_f32 
78      82     _ULite_d3_up_Resize_output_0 (Resize)                             0   smul_f32_f32 
79      83     _ULite_d3_Concat_output_0 (Concat)                                0   smul_f32_f32 
80      84     _ULite_d3_pw_Conv_output_0 (Conv2D)                          49,216   smul_f32_f32 
81      87     _ULite_d3_dw_dw_w_Conv_output_0 (Conv2D)                      1,856   smul_f32_f32 
82      85     _ULite_d3_dw_dw_h_Conv_output_0 (Conv2D)                      1,856   smul_f32_f32 
83      86     _ULite_d3_dw_Add_output_0 (Eltwise/add)                         256     op_f32_f32 
84      88     _ULite_d3_dw_Add_1_output_0 (Eltwise/add)                       256     op_f32_f32 
85      89     _ULite_d3_pw2_Conv_output_0 (Conv2D)                         16,448   smul_f32_f32 
86      90     _ULite_d3_act_Div_output_0 (Eltwise/div)                      1,280     op_f32_f32 
87      91     _ULite_d3_act_Erf_output_0 (Nonlinearity)                       512     op_f32_f32 
88      92     _ULite_d3_act_Add_output_0 (ScaleBias)                          512   smul_f32_f32 
89      93     _ULite_d3_act_Mul_output_0 (Eltwise/mul)                        256     op_f32_f32 
90      94     _ULite_d3_act_Mul_1_output_0 (ScaleBias)                        512   smul_f32_f32 
91      95     _ULite_d2_up_Resize_output_0 (Resize)                             0   smul_f32_f32 
92      96     _ULite_d2_Concat_output_0 (Concat)                                0   smul_f32_f32 
93      97     _ULite_d2_pw_Conv_output_0 (Conv2D)                          49,184   smul_f32_f32 
94      100    _ULite_d2_dw_dw_w_Conv_output_0 (Conv2D)                      3,616   smul_f32_f32 
95      98     _ULite_d2_dw_dw_h_Conv_output_0 (Conv2D)                      3,616   smul_f32_f32 
96      99     _ULite_d2_dw_Add_output_0 (Eltwise/add)                         512     op_f32_f32 
97      101    _ULite_d2_dw_Add_1_output_0 (Eltwise/add)                       512     op_f32_f32 
98      102    _ULite_d2_pw2_Conv_output_0 (Conv2D)                         16,416   smul_f32_f32 
99      103    _ULite_d2_act_Div_output_0 (Eltwise/div)                      2,560     op_f32_f32 
100     104    _ULite_d2_act_Erf_output_0 (Nonlinearity)                     1,024     op_f32_f32 
101     105    _ULite_d2_act_Add_output_0 (ScaleBias)                        1,024   smul_f32_f32 
102     106    _ULite_d2_act_Mul_output_0 (Eltwise/mul)                        512     op_f32_f32 
103     107    _ULite_d2_act_Mul_1_output_0 (ScaleBias)                      1,024   smul_f32_f32 
104     108    _ULite_d1_up_Resize_output_0 (Resize)                             0   smul_f32_f32 
105     109    _ULite_d1_Concat_output_0 (Concat)                                0   smul_f32_f32 
106     110    _ULite_d1_pw_Conv_output_0 (Conv2D)                          49,168   smul_f32_f32 
107     113    _ULite_d1_dw_dw_w_Conv_output_0 (Conv2D)                      7,184   smul_f32_f32 
108     111    _ULite_d1_dw_dw_h_Conv_output_0 (Conv2D)                      7,184   smul_f32_f32 
109     112    _ULite_d1_dw_Add_output_0 (Eltwise/add)                       1,024     op_f32_f32 
110     114    _ULite_d1_dw_Add_1_output_0 (Eltwise/add)                     1,024     op_f32_f32 
111     115    _ULite_d1_pw2_Conv_output_0 (Conv2D)                         16,400   smul_f32_f32 
112     116    _ULite_d1_act_Div_output_0 (Eltwise/div)                      5,120     op_f32_f32 
113     117    _ULite_d1_act_Erf_output_0 (Nonlinearity)                     2,048     op_f32_f32 
114     118    _ULite_d1_act_Add_output_0 (ScaleBias)                        2,048   smul_f32_f32 
115     119    _ULite_d1_act_Mul_output_0 (Eltwise/mul)                      1,024     op_f32_f32 
116     120    _ULite_d1_act_Mul_1_output_0 (ScaleBias)                      2,048   smul_f32_f32 
117     121    _conv3_conv_Conv_output_0 (Conv2D)                          663,584   smul_f32_f32 
118     122    _conv3_Relu_output_0 (Nonlinearity)                           2,592     op_f32_f32 
119     123    _Concat_output_0 (Concat)                                         0   smul_f32_f32 
120     124    _conv4_conv_Conv_output_0 (Conv2D)                        6,905,216   smul_f32_f32 
121     125    _conv4_Relu_output_0 (Nonlinearity)                          10,368     op_f32_f32 
122     131    _value_head_conv_conv_Conv_output_0 (Conv2D)                 10,369   smul_f32_f32 
123     132    _value_head_conv_Relu_output_0 (Nonlinearity)                    81     op_f32_f32 
124     133    _value_head_Flatten_output_0_to_chlast (Transpose)               40   smul_f32_f32 
125     134    _value_head_fc_fc_0_Gemm_output_0 (Dense)                    10,496   smul_f32_f32 
126     135    _value_head_fc_fc_1_Relu_output_0 (Nonlinearity)                128     op_f32_f32 
127     136    _value_head_fc_fc_2_Gemm_output_0 (Dense)                       129   smul_f32_f32 
128     137    node_384 (Nonlinearity)                                          10     op_f32_f32 
129     126    _policy_head_conv_conv_Conv_output_0 (Conv2D)                20,738   smul_f32_f32 
130     127    _policy_head_conv_Relu_output_0 (Nonlinearity)                  162     op_f32_f32 
131     128    _policy_head_Flatten_output_0_to_chlast (Transpose)              81   smul_f32_f32 
132     129    _policy_head_fc_Gemm_output_0 (Dense)                        13,203   smul_f32_f32 
133     130    output_softmax (Nonlinearity)                                 1,215     op_f32_f32 
134     131    output (Nonlinearity)                                           810     op_f32_f32 
------- ------ ------------------------------------------------------ ------------ -------------- 
total                                                                   19,260,049 

Number of operation types
---------------- ------------ ----------- 
operation type              #           % 
---------------- ------------ ----------- 
smul_f32_f32       19,169,545       99.5% 
op_f32_f32             90,504        0.5% 

Complexity report (model)
------ ------------------------------------------ ------------------------- ------------------------- ------------ 
m_id   name                                       c_macc                    c_rom                     c_id         
------ ------------------------------------------ ------------------------- ------------------------- ------------ 
32     _ULite_e1_act_Constant_output_0            |                  0.0%   |                  0.0%   [31]         
34     _ULite_e1_act_Constant_1_output_0          |                  0.0%   |                  0.0%   [33]         
1      _ULite_e1_act_Constant_2_output_0          |                  1.0%   |                  0.7%   [1]          
129    policy_head_fc_weight                      |                  0.1%   |||                4.2%   [132]        
134    value_head_fc_0_weight                     |                  0.1%   ||                 3.3%   [125]        
136    value_head_fc_2_weight                     |                  0.0%   |                  0.0%   [127]        
2      _conv1_Relu_output_0                       |                  0.0%   |                  0.0%   [0, 2]       
3      _conv2_conv_Conv_output_0                  ||                 3.6%   ||                 3.4%   [23]         
4      _conv2_Relu_output_0                       |                  0.0%   |                  0.0%   [24]         
5      _residues_residues_0_conv1_Conv_output_0   |||                6.7%   |||                5.0%   [3]          
6      _residues_residues_0_Relu_output_0         |                  0.0%   |                  0.0%   [4]          
7      _residues_residues_0_conv2_Conv_output_0   |||                6.7%   |||                5.0%   [5]          
8      _residues_residues_0_Add_output_0          |                  0.0%   |                  0.0%   [6]          
9      _residues_residues_0_Relu_1_output_0       |                  0.0%   |                  0.0%   [7]          
10     _residues_residues_1_conv1_Conv_output_0   |||                6.7%   |||                5.0%   [8]          
11     _residues_residues_1_Relu_output_0         |                  0.0%   |                  0.0%   [9]          
12     _residues_residues_1_conv2_Conv_output_0   |||                6.7%   |||                5.0%   [10]         
13     _residues_residues_1_Add_output_0          |                  0.0%   |                  0.0%   [11]         
14     _residues_residues_1_Relu_1_output_0       |                  0.0%   |                  0.0%   [12]         
15     _residues_residues_2_conv1_Conv_output_0   |||                6.7%   |||                5.0%   [13]         
16     _residues_residues_2_Relu_output_0         |                  0.0%   |                  0.0%   [14]         
17     _residues_residues_2_conv2_Conv_output_0   |||                6.7%   |||                5.0%   [15]         
18     _residues_residues_2_Add_output_0          |                  0.0%   |                  0.0%   [16]         
19     _residues_residues_2_Relu_1_output_0       |                  0.0%   |                  0.0%   [17]         
20     _residues_residues_3_conv1_Conv_output_0   |||                6.7%   |||                5.0%   [18]         
21     _residues_residues_3_Relu_output_0         |                  0.0%   |                  0.0%   [19]         
22     _residues_residues_3_conv2_Conv_output_0   |||                6.7%   |||                5.0%   [20]         
23     _residues_residues_3_Add_output_0          |                  0.0%   |                  0.0%   [21]         
24     _residues_residues_3_Relu_1_output_0       |                  0.0%   |                  0.0%   [22]         
25     _ULite_e1_dw_dw_h_Conv_output_0            |                  0.0%   |                  0.0%   [26]         
26     _ULite_e1_dw_Add_output_0                  |                  0.0%   |                  0.0%   [27]         
27     _ULite_e1_dw_dw_w_Conv_output_0            |                  0.0%   |                  0.0%   [25]         
28     _ULite_e1_dw_Add_1_output_0                |                  0.0%   |                  0.0%   [28]         
29     _ULite_e1_bn_BatchNormalization_output_0   |                  0.0%   |                  0.0%   [29]         
31     _ULite_e1_down_MaxPool_output_0            |                  0.2%   |                  0.2%   [30]         
33     _ULite_e1_act_Erf_output_0                 |                  0.0%   |                  0.0%   [32]         
35     _ULite_e1_act_Mul_output_0                 |                  0.0%   |                  0.0%   [34]         
36     _ULite_e1_act_Mul_1_output_0               |                  0.0%   |                  0.0%   [35]         
37     _ULite_e2_dw_dw_h_Conv_output_0            |                  0.0%   |                  0.1%   [37]         
38     _ULite_e2_dw_Add_output_0                  |                  0.0%   |                  0.0%   [38]         
39     _ULite_e2_dw_dw_w_Conv_output_0            |                  0.0%   |                  0.1%   [36]         
40     _ULite_e2_dw_Add_1_output_0                |                  0.0%   |                  0.0%   [39]         
41     _ULite_e2_bn_BatchNormalization_output_0   |                  0.0%   |                  0.0%   [40]         
43     _ULite_e2_down_MaxPool_output_0            |                  0.2%   |                  0.7%   [41]         
44     _ULite_e2_act_Div_output_0                 |                  0.0%   |                  0.0%   [42]         
45     _ULite_e2_act_Erf_output_0                 |                  0.0%   |                  0.0%   [43]         
46     _ULite_e2_act_Add_output_0                 |                  0.0%   |                  0.0%   [44]         
47     _ULite_e2_act_Mul_output_0                 |                  0.0%   |                  0.0%   [45]         
48     _ULite_e2_act_Mul_1_output_0               |                  0.0%   |                  0.0%   [46]         
49     _ULite_e3_dw_dw_h_Conv_output_0            |                  0.0%   |                  0.2%   [48]         
50     _ULite_e3_dw_Add_output_0                  |                  0.0%   |                  0.0%   [49]         
51     _ULite_e3_dw_dw_w_Conv_output_0            |                  0.0%   |                  0.2%   [47]         
52     _ULite_e3_dw_Add_1_output_0                |                  0.0%   |                  0.0%   [50]         
53     _ULite_e3_bn_BatchNormalization_output_0   |                  0.0%   |                  0.0%   [51]         
54     _ULite_e3_pw_Conv_output_0                 |                  0.2%   ||                 2.6%   [52]         
55     _ULite_e3_down_MaxPool_output_0            |                  0.0%   |                  0.0%   [53]         
56     _ULite_e3_act_Div_output_0                 |                  0.0%   |                  0.0%   [54]         
57     _ULite_e3_act_Erf_output_0                 |                  0.0%   |                  0.0%   [55]         
58     _ULite_e3_act_Add_output_0                 |                  0.0%   |                  0.1%   [56]         
59     _ULite_e3_act_Mul_output_0                 |                  0.0%   |                  0.0%   [57]         
61     _ULite_b5_pw1_Conv_output_0                |                  0.0%   |                  1.3%   [58]         
62     _ULite_b5_dw1_dw_h_Conv_output_0           |                  0.0%   |                  0.0%   [68]         
63     _ULite_b5_dw1_Add_output_0                 |                  0.0%   |                  0.0%   [69]         
64     _ULite_b5_dw1_dw_w_Conv_output_0           |                  0.0%   |                  0.0%   [67]         
65     _ULite_b5_dw1_Add_1_output_0               |                  0.0%   |                  0.0%   [70]         
66     _ULite_b5_dw2_dw_h_Conv_output_0           |                  0.0%   |                  0.0%   [64]         
67     _ULite_b5_dw2_Add_output_0                 |                  0.0%   |                  0.0%   [65]         
68     _ULite_b5_dw2_dw_w_Conv_output_0           |                  0.0%   |                  0.0%   [63]         
69     _ULite_b5_dw2_Add_1_output_0               |                  0.0%   |                  0.0%   [66]         
70     _ULite_b5_dw3_dw_h_Conv_output_0           |                  0.0%   |                  0.0%   [60]         
71     _ULite_b5_dw3_Add_output_0                 |                  0.0%   |                  0.0%   [61]         
72     _ULite_b5_dw3_dw_w_Conv_output_0           |                  0.0%   |                  0.0%   [59]         
73     _ULite_b5_dw3_Add_1_output_0               |                  0.0%   |                  0.0%   [62]         
74     _ULite_b5_Concat_output_0                  |                  0.0%   |                  0.0%   [71]         
76     _ULite_b5_pw2_Conv_output_0                |                  0.1%   |||                5.2%   [72]         
77     _ULite_b5_act_Div_output_0                 |                  0.0%   |                  0.0%   [73]         
78     _ULite_b5_act_Erf_output_0                 |                  0.0%   |                  0.0%   [74]         
79     _ULite_b5_act_Add_output_0                 |                  0.0%   |                  0.1%   [75]         
80     _ULite_b5_act_Mul_output_0                 |                  0.0%   |                  0.0%   [76]         
81     _ULite_b5_act_Mul_1_output_0               |                  0.0%   |                  0.1%   [77]         
82     _ULite_d3_up_Resize_output_0               |                  0.0%   |                  0.0%   [78]         
83     _ULite_d3_Concat_output_0                  |                  0.0%   |                  0.0%   [79]         
84     _ULite_d3_pw_Conv_output_0                 |                  0.3%   |||                3.9%   [80]         
85     _ULite_d3_dw_dw_h_Conv_output_0            |                  0.0%   |                  0.2%   [82]         
86     _ULite_d3_dw_Add_output_0                  |                  0.0%   |                  0.0%   [83]         
87     _ULite_d3_dw_dw_w_Conv_output_0            |                  0.0%   |                  0.2%   [81]         
88     _ULite_d3_dw_Add_1_output_0                |                  0.0%   |                  0.0%   [84]         
89     _ULite_d3_pw2_Conv_output_0                |                  0.1%   |                  1.3%   [85]         
90     _ULite_d3_act_Div_output_0                 |                  0.0%   |                  0.0%   [86]         
91     _ULite_d3_act_Erf_output_0                 |                  0.0%   |                  0.0%   [87]         
92     _ULite_d3_act_Add_output_0                 |                  0.0%   |                  0.0%   [88]         
93     _ULite_d3_act_Mul_output_0                 |                  0.0%   |                  0.0%   [89]         
94     _ULite_d3_act_Mul_1_output_0               |                  0.0%   |                  0.0%   [90]         
95     _ULite_d2_up_Resize_output_0               |                  0.0%   |                  0.0%   [91]         
96     _ULite_d2_Concat_output_0                  |                  0.0%   |                  0.0%   [92]         
97     _ULite_d2_pw_Conv_output_0                 |                  0.3%   |                  1.0%   [93]         
98     _ULite_d2_dw_dw_h_Conv_output_0            |                  0.0%   |                  0.1%   [95]         
99     _ULite_d2_dw_Add_output_0                  |                  0.0%   |                  0.0%   [96]         
100    _ULite_d2_dw_dw_w_Conv_output_0            |                  0.0%   |                  0.1%   [94]         
101    _ULite_d2_dw_Add_1_output_0                |                  0.0%   |                  0.0%   [97]         
102    _ULite_d2_pw2_Conv_output_0                |                  0.1%   |                  0.3%   [98]         
103    _ULite_d2_act_Div_output_0                 |                  0.0%   |                  0.0%   [99]         
104    _ULite_d2_act_Erf_output_0                 |                  0.0%   |                  0.0%   [100]        
105    _ULite_d2_act_Add_output_0                 |                  0.0%   |                  0.0%   [101]        
106    _ULite_d2_act_Mul_output_0                 |                  0.0%   |                  0.0%   [102]        
107    _ULite_d2_act_Mul_1_output_0               |                  0.0%   |                  0.0%   [103]        
108    _ULite_d1_up_Resize_output_0               |                  0.0%   |                  0.0%   [104]        
109    _ULite_d1_Concat_output_0                  |                  0.0%   |                  0.0%   [105]        
110    _ULite_d1_pw_Conv_output_0                 |                  0.3%   |                  0.2%   [106]        
111    _ULite_d1_dw_dw_h_Conv_output_0            |                  0.0%   |                  0.0%   [108]        
112    _ULite_d1_dw_Add_output_0                  |                  0.0%   |                  0.0%   [109]        
113    _ULite_d1_dw_dw_w_Conv_output_0            |                  0.0%   |                  0.0%   [107]        
114    _ULite_d1_dw_Add_1_output_0                |                  0.0%   |                  0.0%   [110]        
115    _ULite_d1_pw2_Conv_output_0                |                  0.1%   |                  0.1%   [111]        
116    _ULite_d1_act_Div_output_0                 |                  0.0%   |                  0.0%   [112]        
117    _ULite_d1_act_Erf_output_0                 |                  0.0%   |                  0.0%   [113]        
118    _ULite_d1_act_Add_output_0                 |                  0.0%   |                  0.0%   [114]        
119    _ULite_d1_act_Mul_output_0                 |                  0.0%   |                  0.0%   [115]        
120    _ULite_d1_act_Mul_1_output_0               |                  0.0%   |                  0.0%   [116]        
121    _conv3_conv_Conv_output_0                  ||                 3.4%   ||                 2.6%   [117]        
122    _conv3_Relu_output_0                       |                  0.0%   |                  0.0%   [118]        
123    _Concat_output_0                           |                  0.0%   |                  0.0%   [119]        
124    _conv4_conv_Conv_output_0                  ||||||||||||||||  35.9%   ||||||||||||||||  26.9%   [120]        
125    _conv4_Relu_output_0                       |                  0.1%   |                  0.0%   [121]        
126    _policy_head_conv_conv_Conv_output_0       |                  0.1%   |                  0.1%   [129]        
127    _policy_head_conv_Relu_output_0            |                  0.0%   |                  0.0%   [130]        
128    _policy_head_Flatten_output_0              |                  0.0%   |                  0.0%   [131]        
130    output_softmax                             |                  0.0%   |                  0.0%   [133]        
131    output                                     |                  0.1%   |                  0.0%   [122, 134]   
132    _value_head_conv_Relu_output_0             |                  0.0%   |                  0.0%   [123]        
133    _value_head_Flatten_output_0               |                  0.0%   |                  0.0%   [124]        
135    _value_head_fc_fc_1_Relu_output_0          |                  0.0%   |                  0.0%   [126]        
137    node_384                                   |                  0.0%   |                  0.0%   [128]        
------ ------------------------------------------ ------------------------- ------------------------- ------------ 
macc=19,260,049 weights=1,268,472 act=57,408 ram_io=0

Generated files (7)
--------------------------------------------------------------- 
C:\Users\hp\.stm32cubemx\network_output\network_data_params.h   
C:\Users\hp\.stm32cubemx\network_output\network_data_params.c   
C:\Users\hp\.stm32cubemx\network_output\network_data.h          
C:\Users\hp\.stm32cubemx\network_output\network_data.c          
C:\Users\hp\.stm32cubemx\network_output\network_config.h        
C:\Users\hp\.stm32cubemx\network_output\network.h               
C:\Users\hp\.stm32cubemx\network_output\network.c               
